data/saved_models/brits_original_activity.pt (torch, 42837 bytes, 42 tensors)

rits_f.rnn_cell.weight_ih f4 [40, 15]
0	0x3e913439	0.28360155
1	0xbdd4b605	-0.1038628
2	0xbe8a6571	-0.2703052
3	0xbd54d115	-0.05195721
4	0xbdf7010e	-0.12060748
5	0x3df730f8	0.12069887
6	0x3e1caf3b	0.1530122
7	0xbe3dc951	-0.18533827
8	0xbdbe4cb1	-0.092919715
9	0x3e07d779	0.1326579
10	0xbd8e0986	-0.0693541
11	0x3df3f125	0.11911229
12	0x3e1283f9	0.14308156
13	0xbddcc577	-0.10779851
14	0xbe70062c	-0.23439854
15	0xbdc2da97	-0.09514349
16	0x3e422c42	0.18962196
17	0xbe664ba6	-0.22489795
18	0x3da30fd7	0.079620056
19	0x3e5d0bff	0.21586607
20	0x3e8be886	0.2732584
21	0xbe4f21de	-0.20227763
22	0xbe82df19	-0.25560835
23	0x3dba43e7	0.090949826
24	0x3e99ddc9	0.3005202
25	0xbe767191	-0.2406676
26	0xbe52ccab	-0.20585887
27	0xbe88d144	-0.26722157
28	0x3e001f38	0.12511909
29	0x3dcc7447	0.09983116
30	0xbe6616d7	-0.2246965
31	0xbddca899	-0.10774345
32	0x3e178bb6	0.14799389
33	0xbe9cc439	-0.30618456
34	0xbe031c25	-0.12803705
35	0x3df2953a	0.11844869
36	0xbe7ae1bf	-0.24500178
37	0xbe788385	-0.2426892
38	0xbda66c13	-0.08126082
39	0x3ea21852	0.3165918
40	0x3e8eb78e	0.27874416
41	0x3e9161bd	0.2839488
42	0x3e9e1175	0.30872694
43	0x3d96d428	0.07364684
44	0x3e9a15f1	0.30094865
45	0xbe4e343f	-0.20137118
46	0x3e7a9712	0.24471691
47	0x3de31a6f	0.11089026
48	0x3e8894cd	0.26676026
49	0x3d3fa6d1	0.046789948
50	0x3e98eb78	0.29867148
51	0xbe0965fa	-0.13417807
52	0x3e74b652	0.23897675
53	0xbe39e074	-0.18152028
54	0xbe6c5b44	-0.2308169
55	0x3e68b64c	0.2272579
56	0xbbf25faf	-0.0073966603
57	0xbd96bdde	-0.07360433
58	0x3e8c19de	0.27363485
59	0x3db3b6f8	0.08775133
60	0xbe15dd0a	-0.14635101
61	0xbd57a69c	-0.052649125
62	0x3e65e732	0.22451475
63	0xbdc8dc37	-0.09807628
64	0x3cf54815	0.029941598
65	0xbdd5edb0	-0.10445726
66	0x3e80aaf8	0.2513044
67	0x3d14380d	0.036186267
68	0x3c07cfa9	0.008289256
69	0xbe96314a	-0.2933448
70	0xbc8e4954	-0.01736895
71	0xbe8e8879	-0.27838495
72	0x3e55dba5	0.20884569
73	0xbe9abbab	-0.30221304
74	0xbe3d336e	-0.1847665
75	0xbe6c532d	-0.23078604
76	0x3def10c4	0.1167312
77	0xbdee8fc3	-0.11648514
78	0xbe976889	-0.29571941
79	0x3de72c8b	0.11287793
80	0x3e36ad50	0.17839551
81	0xbe24b0f3	-0.16083126
82	0x3e0122d6	0.12610945
83	0xbcd39a4a	-0.025830407
84	0xbe6753b5	-0.22590525
85	0x3e95f6e7	0.29289934
86	0x3e8c1a21	0.27363685
87	0xbdaa042b	-0.08301576
88	0xbe5d30d0	-0.21600652
89	0x3e2e4502	0.17018512
90	0xbe7131e4	-0.23554188
91	0xbe62983f	-0.2212839
92	0xbe9c4c0f	-0.30526778
93	0xbd17769f	-0.03697836
94	0x3d1b69a5	0.037942547
95	0xbcca83b9	-0.024721013
96	0x3de3ea05	0.1112862
97	0xbe8ab152	-0.2708841
98	0x3e4a96c7	0.1978408
99	0x3a830d3c	0.0009998451
100	0xbe4fcbc6	-0.20292577
101	0x3e76fe62	0.24120477
102	0xbe0d4e67	-0.1379944
103	0x3e028126	0.12744579
104	0x3e5680d3	0.2094758
105	0xbe8b9dc7	-0.27268812
106	0xbd802e5d	-0.06258843
107	0xbe1ecd5a	-0.15508023
108	0x3e354a7c	0.17704195
109	0xbe9371a1	-0.2879763
110	0x3da11a35	0.07866327
111	0xbe5534df	-0.2082095
112	0xbe8102a0	-0.25197315
113	0x3e899b3d	0.2687625
114	0xbe152217	-0.14563785
115	0x3db0a6d3	0.08625569
116	0xbd941ba1	-0.07231832
117	0x3e9ad17a	0.30237943
118	0xbd875043	-0.066071056
119	0x3cdfd5d1	0.027323635
120	0xbe0c1eac	-0.13683575
121	0xbe1abe44	-0.15111643
122	0xbd88cb94	-0.066794544
123	0x3df333f8	0.118751466
124	0xbe9926a0	-0.2991228
125	0xbdece698	-0.1156742
126	0xbe497853	-0.19674806
127	0x3e787395	0.24262841
128	0x3e1ce0c2	0.15320113
129	0xbe64de90	-0.22350526
130	0x3d4a515d	0.049394
131	0x3e8712fa	0.26381665
132	0x3e815daf	0.25266787
133	0x3e601c65	0.21885832
134	0xbd8667cb	-0.06562766
135	0xbe38344e	-0.17988703
136	0xbe2a079c	-0.16604465
137	0x3e32106b	0.17389075
138	0xbe6c6752	-0.23086289
139	0xbe66a729	-0.22524704
140	0x3e38af72	0.18035677
141	0xbcd58148	-0.026062623
142	0xbe28ed1a	-0.16496697
143	0xbdc29448	-0.09500939
144	0xbe8830ee	-0.2659983
145	0xbde49164	-0.111605436
146	0x3e832831	0.256166
147	0x3e60abb5	0.21940501
148	0x3d763833	0.06011219
149	0x3e1fc302	0.15601733
150	0xbe33d858	-0.17562997
151	0xbd7f32bd	-0.062304247
152	0xbe8e55ca	-0.27799827
153	0x3be3537a	0.0069374414
154	0xbe34eff5	-0.17669661
155	0x3d1fd431	0.03902072
156	0x3e22bd1b	0.1589245
157	0xbe87aa58	-0.2649715
158	0xbdceca82	-0.10097219
159	0x3e421a7c	0.18955415
160	0xbe096145	-0.13416012
161	0xbceafb9e	-0.028684434
162	0x3e26fb70	0.16306853
163	0x3e87dbff	0.2653503
164	0xbe700bde	-0.23442027
165	0xbc5b6faa	-0.013393322
166	0x3da186b4	0.07887021
167	0xbe1be224	-0.15222985
168	0x3e1237aa	0.14279047
169	0xb900fba2	-0.00012300772
170	0x3e19ea15	0.15030701
171	0x3e1ee608	0.15517437
172	0xbe941526	-0.28922385
173	0xbd659950	-0.056054413
174	0xbe8712f2	-0.26381642
175	0x3e968c2d	0.2940382
176	0x3c3b93cf	0.0114488145
177	0x3e7df6a8	0.24801123
178	0x3e160551	0.14650466
179	0xbe266614	-0.16249877
180	0x3e50f9b9	0.20407762
181	0x3e593c6d	0.21214457
182	0x3d071d59	0.032986972
183	0xbe1c3dc3	-0.15257935
184	0x3e19446d	0.14967509
185	0xbc4dcc56	-0.0125609245
186	0x3dd93203	0.10605242
187	0xbd3aba18	-0.04558763
188	0xbe9d1fd2	-0.3068834
189	0x3e031f6e	0.12804958
190	0xbde1ce29	-0.1102565
191	0x3e84edf5	0.25962797
192	0xbd2feec7	-0.042952325
193	0xbe839597	-0.25700065
194	0xbd1a8e4d	-0.037733365
195	0xbe9b5611	-0.303391
196	0xbe22b8be	-0.15890786
197	0xbe8f3a26	-0.2797405
198	0xbe2bd5c3	-0.16780762
199	0x3d8c2a11	0.06843961
200	0xbbe4cede	-0.0069826683
201	0x3e88264b	0.26591715
202	0xbe0abff5	-0.13549788
203	0xbe45cbfb	-0.19316094
204	0xbda90bed	-0.08254228
205	0x3c1e063a	0.009645039
206	0x3e204d6c	0.15654534
207	0xbdbd6053	-0.09246888
208	0xbe249030	-0.16070628
209	0xbe5c3bdf	-0.21507214
210	0xbcac9243	-0.021065837
211	0xbcdb5e6a	-0.026778419
212	0xbe90a718	-0.28252482
213	0x3e6c331f	0.23066376
214	0xbe00e4e2	-0.12587312
215	0x3de09b76	0.10967152
216	0xbea1d4e3	-0.31607732
217	0xbc31451c	-0.0108197
218	0xbe62bfd9	-0.22143497
219	0x3cd1450e	0.025545623
220	0xbe24bb6c	-0.16087121
221	0xbe1cb9b2	-0.15305212
222	0xbdb59259	-0.08865804
223	0xbc0baec4	-0.008525554
224	0xbe8853a8	-0.26626325
225	0xbe95f0e6	-0.29285353
226	0xbe19cc16	-0.15019259
227	0x3d00332f	0.031298812
228	0x3e8732ec	0.26406038
229	0x3e884e7c	0.2662238
230	0xbe950dbe	-0.29112047
231	0xbea01f32	-0.312738
232	0x3e42204a	0.1895763
233	0x3a456cc9	0.0007531164
234	0x3e98ab81	0.29818347
235	0xbe9711a2	-0.2950564
236	0x3e92b8a2	0.2865649
237	0xbdbd71c2	-0.09250213
238	0x3d3cd39b	0.04610024
239	0x3e1bb6c3	0.15206437
240	0x3d36d7ae	0.044639282
241	0xbe83be02	-0.25730902
242	0x3c93cbf1	0.018041583
243	0xbe61dcea	-0.22056928
244	0x3d1f22fe	0.03885173
245	0x3dfcb974	0.1234006
246	0x3d002ea7	0.03129449
247	0x3dddf92a	0.1083854
248	0xbe7e18dd	-0.24814172
249	0xbd822d83	-0.06356337
250	0x3c6ada31	0.014334247
251	0xbe825e83	-0.25462732
252	0xbe9390bd	-0.28821364
253	0xbe968e61	-0.294055
254	0xbdd1bb07	-0.10240751
255	0xbe76d16c	-0.24103326

rits_f.rnn_cell.weight_hh f4 [40, 10]
0	0xbdd3a09c	-0.10333368
1	0xbe32e96a	-0.17471853
2	0xbdacf2d7	-0.084447555
3	0x3e67c35f	0.22633122
4	0xbe28b7b9	-0.16476335
5	0x3c828635	0.015933136
6	0xbe8284b2	-0.25491863
7	0xbe54d710	-0.20785165
8	0xbe8ba7b5	-0.27276388
9	0xbd853253	-0.06503739
10	0xbe4e28df	-0.20132779
11	0xbe91a413	-0.2844549
12	0x3e3462af	0.1761577
13	0xbe661b43	-0.22471337
14	0x3e8b4da2	0.27207667
15	0xbd0bef6d	-0.03416388
16	0xbca30d67	-0.019903852
17	0x3e9e0c82	0.30868918
18	0xbe9d67f2	-0.30743366
19	0x3d53d3f6	0.051715814
20	0xbd3e8100	-0.046509743
21	0xbca72c0d	-0.020406747
22	0xbe46dddb	-0.19420569
23	0xbe5e4805	-0.21707161
24	0xbd27631d	-0.040866006
25	0xbd81b6a5	-0.06333665
26	0xbc4d13fa	-0.01251697
27	0x3d195f64	0.037444487
28	0x3e93a0ee	0.28833717
29	0x3daab759	0.08335752
30	0xbe31b36b	-0.17353599
31	0xbd84984e	-0.06474362
32	0x3d24a137	0.04019281
33	0xbdadf5fb	-0.08494183
34	0xbe82b543	-0.25528917
35	0x3e56bb92	0.2096999
36	0xbd78577f	-0.060630318
37	0xbe66377a	-0.224821
38	0x3e86b06c	0.26306474
39	0xbe05b597	-0.13057552
40	0x3bc45c33	0.0059924363
41	0xbe2f4765	-0.17117079
42	0xbcecf2f8	-0.02892445
43	0xbc135f8e	-0.00899495
44	0xbe890233	-0.2675949
45	0xbe636e8d	-0.2221014
46	0x3d807ce3	0.0627382
47	0x3d994b69	0.074850865
48	0x3db56737	0.08857577
49	0x3d1c6dfa	0.03819082
50	0x3e8d9be9	0.27658013
51	0xbe963f0b	-0.29344973
52	0x3dccc50f	0.099985234
53	0x39983452	0.0002903068
54	0xbe624c7e	-0.22099492
55	0x3e00418e	0.12525007
56	0xbda4d375	-0.08048145
57	0xbd332b37	-0.043742385
58	0xbe0fb8d5	-0.14035352
59	0xbe0a2b80	-0.13493156
60	0x3e2903dd	0.1650538
61	0x3d1b03f0	0.037845552
62	0xbe728495	-0.23683389
63	0x3d8b7872	0.068100825
64	0x3e8233d7	0.25430176
65	0x3e07e6bc	0.13271612
66	0xbd9fe57d	-0.07807443
67	0x3dbefd01	0.093256004
68	0xbe395afc	-0.18101114
69	0x3d177f3d	0.03698658
70	0xbe04fbb3	-0.1298664
71	0x3e253b86	0.16135988
72	0x3dd2a8c0	0.10286093
73	0x3d46b2c7	0.04851034
74	0xbe9d0370	-0.30666685
75	0xbd6da200	-0.058015823
76	0xbd32dc3d	-0.043667067
77	0x3aa5bba6	0.0012644425
78	0x3e5e0331	0.21680905
79	0x3dbdcc93	0.09267535
80	0xbdbad7c8	-0.09123188
81	0xbe30da4a	-0.1727077
82	0x3e4a7c04	0.1977387
83	0xbdbca8f4	-0.09211913
84	0xbe69a120	-0.2281537
85	0x3e2ae8cd	0.16690369
86	0xbe413c10	-0.18870568
87	0x3e974b7d	0.2954978
88	0x3e3f3712	0.18673351
89	0x3c8b3572	0.016993258
90	0xbe877974	-0.2645985
91	0xbe00d7c8	-0.12582314
92	0xbce0a6c3	-0.027423268
93	0x3d82400b	0.063598715
94	0x3e04046d	0.12892313
95	0xbd9d35ad	-0.076762535
96	0xbe95deda	-0.29271585
97	0x3e956e2e	0.29185623
98	0x3e985ee4	0.29759896
99	0xbe00f45a	-0.12593213
100	0x3e213810	0.15744042
101	0xbe911074	-0.28332865
102	0xbe3d0d16	-0.18462023
103	0xbda312aa	-0.07962544
104	0xbc824d5c	-0.015906028
105	0xbe3a0d56	-0.1816915
106	0x3d90dc9b	0.07073327
107	0xbe991c10	-0.29904222
108	0xbdc6bea8	-0.097043335
109	0xbdffd1f6	-0.12491219
110	0x3d5b748d	0.05357795
111	0xbe81d2b8	-0.25356078
112	0x3e4a4820	0.19754076
113	0x3d89df21	0.067320116
114	0x3de067de	0.10957311
115	0x3c0ca62b	0.008584539
116	0xbe50446c	-0.20338601
117	0x3e6596e7	0.22420846
118	0x3dee354d	0.1163126
119	0x3d9f5832	0.07780494
120	0xbe955112	-0.29163414
121	0x3e32a495	0.17445596
122	0x3e50519c	0.20343632
123	0x3c97bd06	0.01852275
124	0xbe60d9c4	-0.21958071
125	0x3e0645fa	0.13112631
126	0x3e88490a	0.26618224
127	0x3da650c5	0.08120874
128	0x3e8297cb	0.25506434
129	0xbe70509f	-0.23468255
130	0xbe1c5379	-0.15266217
131	0xbe48d461	-0.19612266
132	0x3e998a88	0.29988503
133	0x3e8e9738	0.27849746
134	0xbe9e4451	-0.30911496
135	0xbcdf2ccb	-0.027243039
136	0x3e580e43	0.2109919
137	0xbde0d3c4	-0.10977891
138	0x3e17d59a	0.14827576
139	0x3cc9a4f1	0.024614783
140	0xbe3921e2	-0.18079332
141	0xbe168f97	-0.14703213
142	0xbc43f752	-0.011960821
143	0x3e24020b	0.16016404
144	0xbe95fe02	-0.29295355
145	0xbe6d11f3	-0.23151378
146	0xbe8a600f	-0.27026412
147	0x3c47c5ef	0.012193187
148	0x3ea16613	0.3152319
149	0xbe892d5b	-0.26792416
150	0xbe8226ef	-0.2542033
151	0xbdbd9c22	-0.092582956
152	0xbe8c1a1e	-0.27363676
153	0x3e9db266	0.3080017
154	0x3e3ba3d4	0.18324214
155	0x3e22c3d7	0.1589502
156	0xbe0d5cac	-0.13804883
157	0xbc98f445	-0.018671164
158	0xbe6b2b71	-0.2296579
159	0x3d4e6c59	0.050396297
160	0x3d939ad4	0.072072655
161	0xbe0411e0	-0.12897444
162	0x3e32de16	0.17467532
163	0xbe893312	-0.26796776
164	0x3bb3ab54	0.0054830704
165	0x3ddb2481	0.10700322
166	0x3e4b2c69	0.1984116
167	0xbe9c2c6b	-0.30502638
168	0x3d9be457	0.07611912
169	0xbdb70c69	-0.08937914
170	0xbe17a88a	-0.14810386
171	0x3e260418	0.16212499
172	0x3e803f72	0.25048405
173	0xbe498179	-0.19678296
174	0x3ea0eaca	0.3142913
175	0xbdba0ff7	-0.09085076
176	0x3e8ec76a	0.27886516
177	0x3d53a978	0.05167529
178	0x3d95e8de	0.073198065
179	0x3e165e5e	0.14684436
180	0xbe2cd113	-0.1687663
181	0xbe875dae	-0.2643866
182	0x3e921de1	0.2853842
183	0x3e9efac8	0.31050706
184	0x3e1a2df3	0.1505659
185	0x3e07ae84	0.13250166
186	0x3e9ea49f	0.3098497
187	0xbc85d29d	-0.01633578
188	0xbcd7097c	-0.02624964
189	0x3d58d394	0.05293615
190	0xbe97b4fe	-0.29630274
191	0x3e693b69	0.2277657
192	0xbe047d6d	-0.12938471
193	0xbcaeb362	-0.02132577
194	0xbe1c6cb4	-0.15275842
195	0x3e84a5e8	0.25907826
196	0xbe17e763	-0.14834361
197	0x3df84d10	0.121240735
198	0xbdd2df2a	-0.102964714
199	0xbda02401	-0.07819367
200	0x3e43dc08	0.19126904
201	0xbe6ba5ae	-0.2301242
202	0x3e0c4ce7	0.13701211
203	0xbc02d8ac	-0.007986229
204	0xbe0d3719	-0.1379055
205	0xbe90c12f	-0.28272387
206	0xbe891bd7	-0.26779053
207	0xbc383aaf	-0.01124446
208	0x3dbbe891	0.09175218
209	0x3ea0db26	0.31417197
210	0x3e6b5d56	0.22984824
211	0xbca0e876	-0.019642096
212	0x3e927357	0.28603622
213	0x3e3c2fa6	0.18377551
214	0x3e727e3d	0.23680969
215	0xbe349c5f	-0.17637776
216	0x3e169c14	0.14707977
217	0x3ddf9942	0.109179035
218	0x3e094a7c	0.1340732
219	0x3dbd5b21	0.09245897
220	0x3e853225	0.2601482
221	0x3e3a9d78	0.18224132
222	0x3e28be14	0.16478759
223	0xbe9cd866	-0.3063385
224	0xbe69b801	-0.22824098
225	0x3d5041a1	0.05084384
226	0x3e16ff30	0.14745784
227	0x3a8fe4bd	0.0010978203
228	0x3daba93e	0.0838189
229	0x3d60dda1	0.05489886
230	0xbe61a6cc	-0.22036284
231	0xbe67b4dc	-0.22627586
232	0x3d0066f8	0.0313482
233	0xbe989ea7	-0.29808542
234	0x3e40eb9f	0.18839882
235	0xbe4dd163	-0.20099406
236	0x3d58ad50	0.05289966
237	0x3e55fb51	0.20896651
238	0x3ce1f14d	0.027580881
239	0x3d92cd6b	0.071680866
240	0xbe175a30	-0.14780498
241	0x3e95b9dd	0.29243365
242	0x3d7a6a86	0.061136745
243	0xbe5aaaf2	-0.21354273
244	0xbd87ae24	-0.066250116
245	0xbea11874	-0.3146397
246	0x3d99bb98	0.07506484
247	0xbdcf7049	-0.101288386
248	0x3e94a063	0.29028615
249	0x3e00b40f	0.12568687
250	0x3e80b04b	0.251345
251	0xbe8f8681	-0.28032306
252	0xbe598880	-0.21243477
253	0x3e0cfca5	0.13768251
254	0x3afc5d55	0.0019253889
255	0xbe8a9717	-0.27068397

rits_f.rnn_cell.bias_ih f4 [40]
0	0xbe251b02	-0.16123584
1	0x3e014a3a	0.12625971
2	0x3db0eca3	0.08638885
3	0x3dc45dc7	0.09588199
4	0xbddd35ac	-0.10801253
5	0xbe613f2d	-0.21996756
6	0xbe3bdfa0	-0.18347025
7	0xbd74cfae	-0.05976837
8	0xbe86ab12	-0.2630239
9	0x3e93949f	0.28824326
10	0xbb8d1137	-0.0043050307
11	0x3e21c4e1	0.1579776
12	0x3e417615	0.18892701
13	0x3e6f6af8	0.23380649
14	0x3e5d5703	0.21615224
15	0xbe1e4419	-0.15455665
16	0xbd84bee2	-0.064817205
17	0x3e1911de	0.14948222
18	0x3d9e72cb	0.07736739
19	0xbe2288d0	-0.15872502
20	0xbc92abb3	-0.017904138
21	0xbb318b6b	-0.0027091156
22	0xbea061f7	-0.3132474
23	0xbe26eb0f	-0.16300605
24	0xbe3d5c4f	-0.18492244
25	0xbe83528b	-0.25648913
26	0x3e46b95d	0.19406648
27	0x3e9c73b3	0.30557021
28	0xbd8dff13	-0.06933417
29	0xbd4c0aa9	-0.049814854
30	0xbe36048c	-0.17775172
31	0x3d22f603	0.039785396
32	0x3e4cc034	0.19995195
33	0x3e5956f6	0.21224579
34	0x3e0c8f3b	0.13726513
35	0x3e96cb7b	0.29452118
36	0xbe1a1908	-0.15048611
37	0xbd26602a	-0.040619053
38	0xbe89bded	-0.26902714
39	0x3e1aac39	0.1510476

rits_f.rnn_cell.bias_hh f4 [40]
0	0xbdefa003	-0.11700442
1	0x3e48cf2e	0.19610283
2	0xbe6384d3	-0.22218637
3	0xbe8a6811	-0.2703252
4	0x3c8cd077	0.017189248
5	0x3cdaaf62	0.026694957
6	0xbe0b8c7d	-0.13627811
7	0xbcaa4d37	-0.020788772
8	0x3e9c97c4	0.30584538
9	0xbe386204	-0.1800614
10	0x3bcab3b5	0.0061859735
11	0x3d5f1a1d	0.054468263
12	0xbe8cd22a	-0.27504092
13	0xbe5698c2	-0.2095671
14	0xbe0550ab	-0.13019054
15	0x3d5a334d	0.05327158
16	0x3e8ae6ed	0.27129307
17	0xbe4c3610	-0.19942498
18	0x3e099b77	0.13438211
19	0x3e4d8a49	0.20072283
20	0x3c07d5d2	0.008290725
21	0x3e4d8631	0.20070721
22	0xbe3c42c4	-0.18384844
23	0xbe1967d5	-0.14981015
24	0xbe55e218	-0.20887029
25	0xbe612326	-0.21986064
26	0x3e61133e	0.21979997
27	0xbdfbe887	-0.123002104
28	0x3dc51cd2	0.09624638
29	0x3db9d192	0.090731755
30	0xbe8dcb42	-0.27694136
31	0x3dbab0b8	0.09115738
32	0x3dcbb51b	0.099466525
33	0xbe9fdd0f	-0.31223342
34	0xbe507ff7	-0.20361315
35	0xbca96a3e	-0.020680543
36	0xbe855526	-0.26041526
37	0x3c78cbe9	0.015185335
38	0xbe3857ea	-0.18002287
39	0xbe57b064	-0.21063381

rits_f.regression.weight f4 [1, 10]
0	0xbbf5888d	-0.0074930848
1	0x3da6e06e	0.08148275
2	0x3db056f4	0.08610335
3	0x3e6a3294	0.22870857
4	0xbe79d682	-0.24398234
5	0xbe41ff1b	-0.18944971
6	0x3e03b42a	0.12861696
7	0x3e125070	0.14288497
8	0x3d813b46	0.06310134
9	0xbe52e5ec	-0.2059552

rits_f.temp_decay.W f4 [10, 14]
0	0xbe804240	-0.25050545
1	0xbe1bfc37	-0.15232931
2	0x3e4ab8c2	0.19797042
3	0xbc2a52a7	-0.010395682
4	0x3e989400	0.29800415
5	0xbe14990e	-0.1451151
6	0x3b05236a	0.0020315298
7	0xbe8cd11e	-0.27503294
8	0x3e233252	0.15937164
9	0x3e68c1cc	0.22730178
10	0xbdc66708	-0.096876204
11	0x3e0bebfc	0.1366424
12	0xbe285279	-0.16437711
13	0x3e60fa50	0.21970487
14	0xbe1284c5	-0.1430846
15	0x3e2aff62	0.16698983
16	0x3e0892cf	0.13337253
17	0x3e5ccdc9	0.21562876
18	0xbd9eeb79	-0.077597566
19	0xbd92fcee	-0.07177149
20	0xbe15f0e1	-0.1464267
21	0xbda76012	-0.08172621
22	0x3bca7945	0.0061790072
23	0x3dd1a6a1	0.1023686
24	0x3e96d3ac	0.29458368
25	0xbcef484d	-0.02920928
26	0xbe99856e	-0.2998461
27	0x3de162c8	0.11005169
28	0x3de716e9	0.11283667
29	0x3e17213f	0.14758776
30	0x3e04af1e	0.12957427
31	0xbd2e1b18	-0.042506307
32	0xbdff43b0	-0.12464082
33	0xbe773489	-0.24141134
34	0x3e8c9e5d	0.27464572
35	0xbe1b1eda	-0.15148488
36	0xbe02ed78	-0.127859
37	0x3e8c110e	0.27356762
38	0xbd46ea9b	-0.04856358
39	0xbd526147	-0.051362302
40	0x3de58b3b	0.11208197
41	0xbe86c173	-0.26319465
42	0x3e8f8fa2	0.2803927
43	0x3e90d0dc	0.28284347
44	0xbe894222	-0.26808268
45	0x3e8bb814	0.27288878
46	0xbd9c6352	-0.07636131
47	0xbe02eb93	-0.12785177
48	0xbe7f6615	-0.24941285
49	0xbe927ffd	-0.28613272
50	0x3e45df7d	0.19323535
51	0xbe274b14	-0.16337234
52	0xbe82ab76	-0.2552144
53	0x3ddf7a8c	0.10912046
54	0x3e6d779c	0.23190159
55	0x3e41d4d3	0.18928842
56	0x3e80051c	0.25003898
57	0xbe624334	-0.22095948
58	0x3e50393d	0.20334335
59	0x3dd03aa1	0.101674326
60	0x3e546b51	0.20744063
61	0xbdcff08a	-0.10153301
62	0x3e892d15	0.26792207
63	0xbdf36a95	-0.11885563
64	0xbe96d1c1	-0.29456905
65	0x3ca030b9	0.019554483
66	0xbe86f8cc	-0.26361692
67	0xbe558e03	-0.20854954
68	0x3e62357f	0.2209072
69	0x3d278539	0.040898535
70	0xbdb45311	-0.08804906
71	0x3d7a146e	0.06105464
72	0x3e96d240	0.29457283
73	0xbcd09531	-0.025461765
74	0xbe40a483	-0.18812756
75	0x3e439268	0.19098818
76	0xbe7ddff8	-0.24792469
77	0x3df64b87	0.120261244
78	0xbe3309d8	-0.17484224
79	0x3e290e78	0.16509426
80	0xbde70582	-0.112803474
81	0xbdbc2a16	-0.09187715
82	0x3dffef7d	0.12496851
83	0x3e70c09d	0.23510976
84	0xbe461042	-0.1934214
85	0xbda316c3	-0.07963326
86	0x3e8b6396	0.27224416
87	0x3e4a87f9	0.19778432
88	0xbe8e1320	-0.27748966
89	0xbe6f3256	-0.23359045
90	0x3c578327	0.013153828
91	0x3e9bd9b1	0.30439523
92	0xbd78b78d	-0.060721923
93	0xbdfe10c7	-0.12405544
94	0xbe6b43c8	-0.22975075
95	0xbe121389	-0.14265265
96	0x3e49b2c2	0.19697097
97	0xbd6408a2	-0.055672295
98	0x3e59eab8	0.21280944
99	0xbd87a96f	-0.06624114
100	0x3c90294e	0.01759782
101	0xbc7f3fac	-0.015579145
102	0xbe0bace9	-0.13640179
103	0x3e98cd7c	0.29844272
104	0x3e1aa5a7	0.15102254
105	0x3e5f0b73	0.21781711
106	0x3df46ac4	0.119344264
107	0xbe2e4c70	-0.17021346
108	0xbe9f14ef	-0.3107066
109	0x3b74162d	0.0037244663
110	0x3de552e5	0.111974515
111	0x3c06b96f	0.008222922
112	0xbe9b66cd	-0.30351868
113	0x3dc94b73	0.09828844
114	0x3e70d058	0.23516977
115	0x3e9400c8	0.28906846
116	0x3d2f94d0	0.042866528
117	0xbe8c6eab	-0.27428183
118	0x3e9cfa0d	0.30659524
119	0x3d06c982	0.032907017
120	0xbdb01a57	-0.08598774
121	0xbb9e0705	-0.004822614
122	0x3e8b023e	0.27150148
123	0x3e91cc27	0.28476068
124	0x3e59f18e	0.21283552
125	0xbbd4bbcc	-0.0064921137
126	0x3e1f03b2	0.15528753
127	0xbcf50498	-0.029909417
128	0x3e4f6eae	0.20257065
129	0x3dfbb971	0.122912295
130	0xbd6983c1	-0.057010416
131	0x3dae1c9d	0.08501551
132	0xbe9810c5	-0.29700294
133	0x3e40dd32	0.1883438
134	0xbe105396	-0.14094386
135	0xbde0aac3	-0.1097007
136	0x3df33db5	0.11877004
137	0xbdb0fab6	-0.08641569
138	0xbdd37fcb	-0.10327109
139	0x3e911a02	0.28340155

rits_f.temp_decay.b f4 [10]
0	0xbe85332c	-0.26015604
1	0xbe15e9d2	-0.14639977
2	0x3e9958e1	0.29950622
3	0x3dd0b655	0.10191027
4	0x3e618e49	0.22026934
5	0xbe431b14	-0.19053298
6	0x3ccc0d59	0.024908708
7	0x3d98fb68	0.07469827
8	0x3e550c28	0.20805418
9	0x3e073e87	0.13207446

rits_b.rnn_cell.weight_ih f4 [40, 15]
0	0xbe8bfdb8	-0.2734201
1	0x3e7a2dae	0.24431488
2	0x3e4af6c0	0.1982069
3	0xbea0968a	-0.31364852
4	0xbe9fcc01	-0.3121033
5	0xbe2e05e9	-0.16994442
6	0xbd902017	-0.07037371
7	0x3db369d4	0.087604195
8	0xbe207bf0	-0.15672278
9	0xbd55be13	-0.052183222
10	0x3e056ed8	0.13030565
11	0xbe70f40a	-0.23530594
12	0xbe85e3bd	-0.26150313
13	0x3d0525a3	0.032506596
14	0x3e72069d	0.23635335
15	0xbc0295d7	-0.007970295
16	0xbd586e68	-0.052839667
17	0xbdcca499	-0.09992332
18	0x3e948844	0.29010212
19	0xbd9dbdbc	-0.077022046
20	0x3e6a3655	0.22872289
21	0xbe929501	-0.28629306
22	0xbe06e213	-0.13172178
23	0xbe0c760a	-0.13716903
24	0x3e900c8d	0.28134575
25	0xbe39ea35	-0.18155749
26	0x3e46726c	0.19379586
27	0x3e38bce3	0.18040805
28	0x3e7ce98c	0.24698466
29	0x3db6d16e	0.08926664
30	0xbe8568cb	-0.26056513
31	0xbe89095c	-0.26764953
32	0xbea1c8e2	-0.31598574
33	0xbde2bede	-0.11071561
34	0xbe711d66	-0.23546371
35	0x3e83b208	0.25721765
36	0x3dd5eb98	0.104453266
37	0xbe22e365	-0.15907057
38	0xbc3c6a61	-0.011499972
39	0xbc1fc5b1	-0.009751723
40	0xbe820a4e	-0.25398487
41	0x3e87d439	0.265291
42	0x3e00e8c2	0.1258879
43	0xbe8aba82	-0.2709542
44	0x3e55b561	0.20869972
45	0xbe7531a5	-0.23944719
46	0xbe638127	-0.22217236
47	0xbe0d3ebd	-0.13793464
48	0xbddb1d32	-0.10698928
49	0x3d4ef05d	0.050522197
50	0xbce16942	-0.027516011
51	0x3e919659	0.2843502
52	0xbe9f05bd	-0.31059065
53	0xbd04f5a8	-0.03246084
54	0x3e94da80	0.29072952
55	0xbe8a0a25	-0.26960865
56	0xbd930981	-0.07179547
57	0x3e80d3e0	0.25161648
58	0x3da46f77	0.08029073
59	0x3db51ca6	0.08843355
60	0x3e2f8c13	0.17143278
61	0xbe356f40	-0.1771822
62	0x3e0c4938	0.13699806
63	0xbbb4bd08	-0.0055156983
64	0x3e836b67	0.2566788
65	0x3cf4bcfb	0.02987527
66	0x3d36a6d9	0.044592712
67	0xbdb264b2	-0.08710612
68	0x3dd6ebf7	0.104942255
69	0x3e66b49f	0.22529839
70	0x3d0dc7a7	0.03461423
71	0x3c0cf89f	0.008604198
72	0x3e924dfd	0.28575125
73	0xbd80a2a5	-0.06281022
74	0xbe93896f	-0.2881579
75	0xbb8da56f	-0.0043226997
76	0xbe68d6f2	-0.22738245
77	0xbe66a67c	-0.22524446
78	0xbe1d738d	-0.1537611
79	0x3e587579	0.21138562
80	0xbd92b96d	-0.071642734
81	0xbe27abad	-0.16374083
82	0x3e0ace79	0.13555326
83	0x3e11277d	0.1417522
84	0x3e70df01	0.23522569
85	0xbdfc32a3	-0.12314346
86	0xbdc1bca5	-0.09459809
87	0x3d9427c9	0.07234151
88	0x3e1cb41d	0.15303083
89	0xbde8757d	-0.11350534
90	0x3d6c6d01	0.05772114
91	0x3e18fab2	0.14939383
92	0xbe3a7b81	-0.18211176
93	0x3e2206ef	0.15822957
94	0xbc806df7	-0.015677435
95	0xbd187c80	-0.037228107
96	0xbdadb60b	-0.084819876
97	0x3e9ad8be	0.30243486
98	0xbe2a351f	-0.16621827
99	0x3e989adb	0.29805645
100	0x3dc683c7	0.09693103
101	0xbc2a056e	-0.010377271
102	0x3e3329b4	0.17496377
103	0xbc18b020	-0.009319335
104	0xbdf66816	-0.120315716
105	0x3dc03acf	0.09386217
106	0x3ea3156c	0.3185228
107	0xbe8e6373	-0.2781025
108	0xbd5f4bdc	-0.054515705
109	0xbe31cc73	-0.17363147
110	0xbe51af39	-0.20476998
111	0x3e10530b	0.14094178
112	0xbe838995	-0.25690904
113	0x3e7c082b	0.24612491
114	0x3e00c358	0.12574518
115	0xbe695e14	-0.22789794
116	0xbe2bd14f	-0.16779064
117	0x3db7eed5	0.089811005
118	0x3e33acb1	0.17546345
119	0xbe7356d4	-0.23763591
120	0xbe42df31	-0.19030453
121	0xbe1843ab	-0.14869563
122	0xbd98df06	-0.07464413
123	0x3c5130db	0.012767996
124	0x3e50591c	0.20346493
125	0xbdea78ee	-0.11448847
126	0xbd8b14c7	-0.06791072
127	0x3e35f003	0.17767338
128	0x3e2cf02c	0.16888493
129	0x3dc2c4cc	0.09510192
130	0x3e94232d	0.28933087
131	0x3cc7a85e	0.024372276
132	0xbd1d7741	-0.038443808
133	0x3e7de83e	0.24795625
134	0x3c70e2a1	0.01470247
135	0xbe7cae0a	-0.24675766
136	0xbe69371a	-0.22774926
137	0x3df9613f	0.12176751
138	0x3d514874	0.051094487
139	0xbe3bf935	-0.18356784
140	0x3e37dbec	0.17954987
141	0xbc30efd5	-0.010799368
142	0xbe0e4171	-0.13892151
143	0x3e9d546f	0.3072848
144	0xbe525ea3	-0.20543914
145	0xbe87efb2	-0.2655006
146	0xbe6bd463	-0.23030238
147	0x3dc36b18	0.09541911
148	0xbe8cec22	-0.27523905
149	0x3e5e1016	0.21685824
150	0x3e91d4f6	0.2848279
151	0xbe3c2a58	-0.18375528
152	0xbe10b390	-0.14130998
153	0xbe8024c8	-0.25028062
154	0xbcf5aae7	-0.02998872
155	0xbe9bf330	-0.30458975
156	0x3e0b4b58	0.1360296
157	0xbe51dd17	-0.20494495
158	0x3e9bd05d	0.30432406
159	0xbbea615f	-0.007152721
160	0x3e2b84f0	0.1674993
161	0xbe3577ab	-0.17721431
162	0x3e2fd7e2	0.17172197
163	0x3e71aafd	0.23600383
164	0x3e70ad74	0.23503667
165	0x3e91a3e4	0.2844535
166	0xbdc383c2	-0.09546615
167	0xbe841f4e	-0.25805134
168	0xbd89c5d0	-0.06727183
169	0xbc83f939	-0.01611005
170	0xbe04cb56	-0.12968192
171	0xbe2a15bf	-0.16609858
172	0x3e20c45f	0.1569991
173	0x3e8d1f2e	0.2756285
174	0x3e83322f	0.25624225
175	0x3e6209e3	0.22074084
176	0x3e921a36	0.28535622
177	0x3c9f00ff	0.019409655
178	0xbdb66fb8	-0.089080274
179	0xbca5132d	-0.020150745
180	0x3e981172	0.2970081
181	0xbe5119bf	-0.20419978
182	0xbd1c4c61	-0.038158778
183	0x3e621c44	0.22081095
184	0xbe831a33	-0.25605926
185	0xbcc219a9	-0.023693876
186	0xbe54e5f3	-0.20790844
187	0xbd9c41ba	-0.07629724
188	0x3e1e3f47	0.15453826
189	0x3e5f56af	0.21810411
190	0x3e6e9546	0.23299131
191	0x3e00a175	0.12561591
192	0xbc98dd8c	-0.01866033
193	0xbd91582b	-0.07096895
194	0xbe851da9	-0.2599919
195	0xbccf2349	-0.02528538
196	0xbe931fa3	-0.28735074
197	0xbe3448d6	-0.1760591
198	0x3e8836e3	0.26604375
199	0x3e85ddfe	0.2614593
200	0xbdd85d45	-0.10564665
201	0xbe9e4c5b	-0.3091763
202	0xbd974d84	-0.07387832
203	0x3e362da6	0.17790851
204	0xbdb37213	-0.08761992
205	0x3e493215	0.19648011
206	0xbe151fcc	-0.14562911
207	0xbe8f830b	-0.28029665
208	0xbd9d10ae	-0.07669197
209	0xbe38d309	-0.18049254
210	0x3d552dcc	0.05204563
211	0xbe8faad8	-0.2806003
212	0xbe49c4e9	-0.19704022
213	0x3ae123ac	0.0017176769
214	0xbb454635	-0.003010166
215	0xbddfa91c	-0.10920927
216	0x3e4e8675	0.20168479
217	0xbc379f42	-0.011207404
218	0xbdc89ed9	-0.09795923
219	0xbe2632d1	-0.16230322
220	0xbe4f5fa5	-0.20251329
221	0xbe2a40b4	-0.16626245
222	0x3d87d6a3	0.066327356
223	0xbe95d902	-0.29267126
224	0xbe683276	-0.226755
225	0xbea0dd60	-0.31418896
226	0x3d753eb7	0.059874263
227	0x3e9799fa	0.29609662
228	0x3e2bcdcf	0.16777728
229	0x3e969877	0.29413196
230	0x3e97aed1	0.29625562
231	0xbd544439	-0.051822875
232	0x3e839924	0.25702775
233	0x3d9bb140	0.07602167
234	0xbc6aad6d	-0.0143235745
235	0x3ea120fd	0.3147048
236	0xbc5d2d5f	-0.013499587
237	0xbea122f8	-0.31471992
238	0x3dad8c57	0.08474033
239	0x3e459e26	0.1929861
240	0x3e52f629	0.20601715
241	0xbe90bf25	-0.28270832
242	0x3e94dc38	0.29074264
243	0xbe6c40b2	-0.23071554
244	0x3e4d0ac9	0.20023645
245	0x3e5cb498	0.21553266
246	0xbe1abcf6	-0.15111145
247	0xbd7cfd4e	-0.061765008
248	0xbe162b05	-0.14664848
249	0xbdbdefef	-0.09274279
250	0x3d5eb31f	0.054370042
251	0x3e6aa99a	0.2291626
252	0xbdb785fb	-0.089611016
253	0x3e9689cf	0.29402015
254	0x3dabaf0e	0.083829984
255	0xbda811e9	-0.08206541

rits_b.rnn_cell.weight_hh f4 [40, 10]
0	0xbd344b7f	-0.04401731
1	0xbda7660f	-0.08173763
2	0xbda79eec	-0.08184609
3	0x3dbee460	0.09320903
4	0x3e937a96	0.28804463
5	0xbe844296	-0.2583205
6	0x3e3fc09c	0.18725818
7	0xbd575e45	-0.052580137
8	0xbe6ac566	-0.22926864
9	0x3cd34c6b	0.025793275
10	0x3c883540	0.016626954
11	0xbda1ace4	-0.078943044
12	0x3e2995af	0.16561006
13	0x3dba5ec2	0.09100105
14	0xbd2a8f81	-0.041640762
15	0xbe4fd7e1	-0.20297195
16	0x3d056e97	0.03257617
17	0x3e06b61e	0.1315541
18	0xbe1d01d0	-0.15332723
19	0x3e5bc2fa	0.21461096
20	0xbe9ba7e9	-0.30401543
21	0xbe2457af	-0.16049074
22	0x3e543de4	0.20726734
23	0x3d5d1ff9	0.05398557
24	0xbe8cd46c	-0.27505815
25	0xbe51a4d0	-0.20473027
26	0xbcad3a5c	-0.021145992
27	0xbe37fec2	-0.17968276
28	0x3d9d8868	0.07692033
29	0xbe8f7139	-0.2801607
30	0x3e9aea50	0.3025689
31	0x3e91c51a	0.2847069
32	0x3e05cc98	0.13066328
33	0x3e0f6d7d	0.1400661
34	0x3e9e6f37	0.30944225
35	0x3e052295	0.13001473
36	0x3ea0b8ba	0.31390935
37	0xbe7adc2f	-0.24498056
38	0x3e7b8aef	0.24564718
39	0xbd30f71b	-0.04320441
40	0x3e512bf4	0.20426923
41	0xbe2c17a3	-0.16805892
42	0xbe7f76ff	-0.24947737
43	0xbe1e9376	-0.1548594
44	0xbe9d15f8	-0.30680823
45	0xbea1d294	-0.3160597
46	0xbd09db0f	-0.033656176
47	0xbe463645	-0.1935664
48	0x3e770c59	0.24125804
49	0xbdeecc48	-0.11660057
50	0xbd391cdd	-0.04519354
51	0xbda7da58	-0.08195943
52	0xbc89ca05	-0.016819963
53	0x3e19440f	0.14967369
54	0x3e9b3a58	0.3031795
55	0x3e331e6e	0.17492077
56	0xbde41d83	-0.111384414
57	0x3e59eac3	0.2128096
58	0x3e8ce753	0.27520236
59	0xbe45bd88	-0.19310582
60	0x3e6abfbd	0.22924705
61	0xbe87d663	-0.26530752
62	0xbe190297	-0.14942394
63	0x3de46ac8	0.111531794
64	0xbe88dc3d	-0.26730528
65	0xbe814574	-0.252483
66	0x3e956d8d	0.29185143
67	0x3d6dee87	0.058088806
68	0x3cca5801	0.024700167
69	0xbe4a20dd	-0.19739099
70	0xbe2ed248	-0.17072403
71	0xbe5bd257	-0.21466957
72	0xbd2f5aee	-0.042811327
73	0xbdd740f6	-0.10510437
74	0x3e8aa355	0.27077737
75	0x3d597855	0.053093273
76	0xbe35a871	-0.17740037
77	0xbe760cba	-0.24028292
78	0x3e83413a	0.256357
79	0x3e4c5278	0.19953334
80	0xbe288502	-0.16456988
81	0x3c856168	0.016281798
82	0x3e8ced2e	0.27524704
83	0xbe84f62c	-0.25969064
84	0xbd37584e	-0.04476195
85	0xbe0756f4	-0.13216764
86	0xbe9fe631	-0.3123031
87	0x3e736de4	0.23772389
88	0xbe0d6857	-0.13809334
89	0x3e8bb765	0.27288356
90	0x3dbf0761	0.09327579
91	0xbd7060c7	-0.058686044
92	0x3de0ff08	0.10986143
93	0xbdbbe957	-0.091753654
94	0x3e87bace	0.26509708
95	0xbe4665a6	-0.19374713
96	0x3e923b71	0.28560975
97	0xbde98eaf	-0.11404168
98	0x3e06ada2	0.13152173
99	0xbd511e98	-0.051054567
100	0x3e837e78	0.25682425
101	0xbe6e1391	-0.23249651
102	0xbdbb3b32	-0.0914215
103	0xbe396501	-0.18104936
104	0x3e5ade67	0.21373902
105	0xbe2b9c3b	-0.16758816
106	0xbe90a619	-0.28251722
107	0xbe17ed12	-0.14836529
108	0xbe6ec7c1	-0.23318388
109	0x3e2d282f	0.1690986
110	0xbc8efb0c	-0.017453693
111	0xbe97c40f	-0.29641768
112	0x3e4857ef	0.19564794
113	0x3e4bda65	0.1990753
114	0xbd50c1e6	-0.050966166
115	0x3da49a00	0.08037186
116	0xbe9f11a6	-0.31068152
117	0x3d3534d6	0.04423984
118	0x3c96150a	0.01832058
119	0xbe1a3af2	-0.15061548
120	0x3e27426d	0.16333933
121	0x3e943ce5	0.2895271
122	0x3e3781f2	0.17920664
123	0xbe9fc9ed	-0.31208745
124	0x3e5387a4	0.20657212
125	0xbdb8e3f2	-0.09027852
126	0xbe818966	-0.2530014
127	0x3dd54640	0.1041379
128	0x3e6b9bf1	0.23008706
129	0x3e0867d4	0.13320857
130	0x3e440b34	0.19144899
131	0x3e5f8c46	0.21830854
132	0xbdc405a2	-0.09571387
133	0x3e935a77	0.28779957
134	0xbe57661f	-0.2103505
135	0xbdd6cfa2	-0.104888216
136	0xbddcd90a	-0.107835844
137	0x3e9cc9c6	0.3062269
138	0xbe385104	-0.17999655
139	0xbddb6f79	-0.10714621
140	0xbe91dcab	-0.2848867
141	0x3e9fee13	0.31236324
142	0xbe80a025	-0.2512218
143	0x3de9c8e4	0.1141527
144	0xbd896210	-0.06708157
145	0x3e05bf9a	0.13061371
146	0x3e82d1a4	0.25550568
147	0xbe8cc4cb	-0.2749389
148	0xbe3184d8	-0.17335832
149	0x3e97110a	0.29505187
150	0x3e394e65	0.18096311
151	0x3dfc5d55	0.12322489
152	0xbdca6b41	-0.09883738
153	0x3e6990e9	0.22809185
154	0x3d295b61	0.04134691
155	0x3e0972c6	0.13422689
156	0x3e5eaacd	0.21744843
157	0xbe98b45f	-0.29825112
158	0xbd5ca959	-0.05387244
159	0x3e6fb446	0.23408613
160	0x3cb340ff	0.021881578
161	0xbe84c289	-0.2592967
162	0xbe2de283	-0.16980939
163	0xbe14716b	-0.1449639
164	0xbe69af2b	-0.22820728
165	0x3e29ad09	0.16569914
166	0xbdb24fc1	-0.08706618
167	0xbe18377e	-0.14864919
168	0x3e407664	0.18795162
169	0x3ce3343f	0.027734874
170	0xbde23ad8	-0.1104638
171	0x3e7ee71f	0.24892853
172	0x3e204908	0.15652859
173	0x3e8f5877	0.2799718
174	0x3e96e160	0.29468822
175	0x3d4bdd15	0.049771387
176	0xbe766a8a	-0.24064079
177	0xbe7b2f9f	-0.24529885
178	0xbe3b86ef	-0.18313192
179	0xbd082492	-0.033238
180	0xbe9dbd14	-0.30808318
181	0xbe4c9bdc	-0.1998133
182	0xbdfa2a6d	-0.12215123
183	0x3da735db	0.08164569
184	0xbe09f34c	-0.13471717
185	0xbde92932	-0.113848105
186	0xbdbbf3cb	-0.09177359
187	0xbc4b503e	-0.012409268
188	0x3e986c00	0.29769897
189	0x3e336636	0.17519459
190	0x3d8f400b	0.06994637
191	0x3e9594fc	0.2921523
192	0xbdcf6bb9	-0.10127968
193	0x3e153860	0.14572287
194	0xbe6388ff	-0.22220229
195	0x3dd52d0c	0.10408983
196	0x3e759229	0.23981537
197	0x3daf1de3	0.08550622
198	0xba4a1bec	-0.0007709849
199	0xbcf12fb5	-0.029441694
200	0xbd89840e	-0.067146406
201	0xbdef660c	-0.11689386
202	0x3e9bbaa4	0.30415833
203	0x3e857c9b	0.2607163
204	0xbd2b0cb1	-0.04176015
205	0x3e5e1215	0.21686585
206	0xbe84cdca	-0.25938255
207	0x3e605aeb	0.21909682
208	0xbe8e9743	-0.2784978
209	0x3e33d005	0.17559822
210	0x3e2829ad	0.16422148
211	0x3d2e9aa3	0.04262794
212	0x3e49f37e	0.19721791
213	0xbd09cf15	-0.033644754
214	0xbdb5deab	-0.08880361
215	0xbe9ec719	-0.31011274
216	0xbe881585	-0.26578918
217	0x3c600b05	0.013674502
218	0x3e7f10a3	0.2490869
219	0x3d8fd58b	0.07023152
220	0xbe3f4c68	-0.1868149
221	0xbe552cb1	-0.2081783
222	0xbe2df737	-0.16988836
223	0xbdf1afc9	-0.118011065
224	0x3e8c7e61	0.2744017
225	0xbd4bb32f	-0.04973143
226	0x3e98f8f9	0.2987745
227	0xbd97b867	-0.07408219
228	0x3c199a9b	0.00937524
229	0x3daf8894	0.08570972
230	0xbc69284f	-0.014230802
231	0xbe8db7f2	-0.27679402
232	0xbe8ee750	-0.27910852
233	0xbe29acca	-0.1656982
234	0x3d15a079	0.03652999
235	0x3dd1a447	0.102364115
236	0x3e50d035	0.20391925
237	0x3e99b034	0.30017245
238	0xbe605da0	-0.21910715
239	0x3e619559	0.22029628
240	0xbbded4a4	-0.006800251
241	0x3e0e2192	0.13879994
242	0x3e603521	0.21895267
243	0xbd2be5f0	-0.041967332
244	0x3d22185b	0.03957401
245	0xbcc9671e	-0.024585303
246	0x3e431b94	0.19053489
247	0x3e8658cf	0.2623963
248	0x3d473640	0.04863572
249	0xbe393e4e	-0.18090174
250	0xbe96b147	-0.29432127
251	0x3d6f8f79	0.058486436
252	0xbe47eb91	-0.19523455
253	0xbe8c2a7e	-0.2737617
254	0xbd430b23	-0.047618043
255	0xbddb791e	-0.10716461

rits_b.rnn_cell.bias_ih f4 [40]
0	0xbdcad3e3	-0.099036954
1	0x3d4d7a11	0.05016524
2	0xbe80b127	-0.25135157
3	0xbcbb715b	-0.0228812
4	0x3e8d3d14	0.2758566
5	0xbe547023	-0.20745902
6	0x3e8bbeb9	0.27293947
7	0x3e3e403b	0.1857919
8	0x3dde2aac	0.10847983
9	0x3de9298d	0.11384878
10	0xbe88daa6	-0.26729316
11	0xbe48c62e	-0.1960685
12	0xbe41afdf	-0.18914746
13	0x3e163fc4	0.14672762
14	0xbe851da2	-0.2599917
15	0x3e5d6e5e	0.21624133
16	0xbe1971a3	-0.14984755
17	0xbe9eab89	-0.30990246
18	0xbd2f97e5	-0.042869467
19	0x3c9fbe71	0.01949999
20	0x3e605a97	0.21909557
21	0xbd9a679a	-0.07539292
22	0x3b8ef0ff	0.004362225
23	0x3ddc74b7	0.10764449
24	0xbd87d781	-0.06632901
25	0x3d49b78f	0.04924732
26	0x3e61d143	0.22052483
27	0x3dea7aa9	0.11449177
28	0xbe202c90	-0.15641999
29	0xbe5c0a07	-0.214882
30	0x3e18883d	0.14895721
31	0xbda7e160	-0.08197284
32	0xbe836564	-0.25663292
33	0xbd82873c	-0.0637345
34	0x3d9272dc	0.07150814
35	0xbe612661	-0.21987297
36	0x3e165f1e	0.14684722
37	0xbe6eaacc	-0.23307341
38	0x3d885924	0.06657627
39	0x3e2f916f	0.17145322

rits_b.rnn_cell.bias_hh f4 [40]
0	0x3e494e95	0.19658883
1	0x3c8f9fc6	0.01753224
2	0xbe667a36	-0.22507557
3	0x3e81cace	0.2535004
4	0xbe4332fd	-0.19062419
5	0x3e90d55e	0.28287786
6	0x3d9b3da6	0.07580118
7	0x3e17e03a	0.1483163
8	0x3e26bad5	0.16282208
9	0xbdadf12e	-0.08493267
10	0xbe132ff6	-0.14373764
11	0xbe02468e	-0.12722227
12	0xbd953352	-0.07285179
13	0xbe8d6295	-0.27614275
14	0xbe8b5b05	-0.2721788
15	0xbea0e0c2	-0.31421477
16	0x3e1879be	0.14890191
17	0xbe78ef44	-0.24310023
18	0x3cb85fff	0.022506712
19	0xbe876e7b	-0.26451477
20	0x3e16f644	0.1474238
21	0xbc125f18	-0.008933805
22	0x3e5cc33f	0.21558855
23	0x3d578fcd	0.052627373
24	0xbc81125f	-0.01575583
25	0xbe7aef4a	-0.24505344
26	0x3e960ed8	0.293082
27	0x3da53784	0.080672294
28	0xbb899105	-0.004198196
29	0xbdf172f7	-0.11789506
30	0x3d8a579d	0.06754992
31	0x3d86bb13	0.0657865
32	0x3e813bdc	0.25240982
33	0xbe91b163	-0.28455648
34	0x3ba7f4e0	0.005125627
35	0x3e5240e7	0.20532571
36	0xbd8e947d	-0.06961916
37	0xbe8f5f27	-0.28002283
38	0x3e237064	0.15960842
39	0x3e35d3bd	0.17756553

rits_b.regression.weight f4 [1, 10]
0	0xbe3f56df	-0.18685482
1	0xbe594390	-0.2121718
2	0x3e71e116	0.2362102
3	0x3d95bacc	0.07311019
4	0xbe4d3208	-0.20038617
5	0xbe07a5c0	-0.13246822
6	0x3df477c0	0.11936903
7	0xbe5a96ce	-0.2134659
8	0x3e1204a2	0.1425958
9	0x3e4867a4	0.19570786

rits_b.temp_decay.W f4 [10, 14]
0	0xbdba3b36	-0.09093325
1	0xbd101300	-0.03517437
2	0xbe8e093e	-0.27741426
3	0xbd36e590	-0.04465252
4	0x3cbe18fe	0.023205277
5	0x3d2e55c4	0.04256226
6	0x3e122f5f	0.14275883
7	0x3dad70e8	0.08468801
8	0x3d2663fd	0.0406227
9	0x3e8cd37a	0.27505094
10	0xbdc20e0a	-0.09475334
11	0x3ce24f9a	0.027625848
12	0x3e2d01f1	0.16895272
13	0x3e7cc93a	0.24686137
14	0xbbc04ece	-0.0058687693
15	0x3e87e1c3	0.2653943
16	0x3e273de2	0.163322
17	0xbd9835b6	-0.074321195
18	0xbe18efb1	-0.14935185
19	0xbe2b7999	-0.16745605
20	0x3e6d6ef7	0.23186861
21	0x3dd8b73a	0.10581823
22	0xbe92a344	-0.28640187
23	0x3e715650	0.23568082
24	0xbd735dc0	-0.05941558
25	0xbd262590	-0.040563166
26	0xbd96643a	-0.073433354
27	0x3cda648e	0.026659276
28	0xbdd50fd1	-0.10403407
29	0xbe77445c	-0.24147171
30	0x3e5d4195	0.21607049
31	0xbe160790	-0.14651322
32	0xbea08df3	-0.313583
33	0xbdbf6aee	-0.09346567
34	0x3e99b0cd	0.300177
35	0xbe9e262d	-0.308885
36	0x3e9de255	0.3083674
37	0xbe898ed9	-0.26866797
38	0xbe615a99	-0.22007217
39	0x3e91e89c	0.2849778
40	0xbe308b4b	-0.17240636
41	0xbdcdfe43	-0.10058262
42	0xbe1f93d3	-0.15583734
43	0xbe2b3658	-0.16719949
44	0x3cdeb8bc	0.027187698
45	0xbe101865	-0.14071806
46	0x3d431d01	0.047635082
47	0xbe98f49a	-0.29874116
48	0xbe82d65a	-0.25554162
49	0xbe8128a7	-0.25226328
50	0x3e482491	0.19545199
51	0xbc02bf49	-0.007980176
52	0xbd73de84	-0.05953838
53	0x3cdc86f5	0.026919821
54	0x3e34ef04	0.17669302
55	0x3e805391	0.25063756
56	0x3d3b2a14	0.045694426
57	0x3e29145b	0.16511671
58	0xbe7563c8	-0.23963845
59	0xbe5993ef	-0.21247838
60	0xbe6a4bc0	-0.22880459
61	0x3d1aa577	0.037755456
62	0x3e186b97	0.14884792
63	0x3d10db47	0.03536537
64	0xbdc05477	-0.093911104
65	0xbe19cd78	-0.15019786
66	0xbde2e5ec	-0.1107901
67	0xbe3b0c8d	-0.18266506
68	0xbe9b90fa	-0.30384046
69	0x3e41743e	0.18891999
70	0x3e1cf94e	0.15329477
71	0x3d4e46f5	0.05036064
72	0xbda141a2	-0.078738466
73	0x3e018805	0.12649544
74	0x3d8d1fd7	0.068908386
75	0xbe8441dd	-0.258315
76	0xbe0e5ff0	-0.13903785
77	0x3df44893	0.11927905
78	0xbdd4556a	-0.10367854
79	0x3cd0e522	0.025499884
80	0x3e1c86aa	0.15285745
81	0xbe848d1a	-0.25888902
82	0x3d97ab75	0.0740575
83	0x3e18865a	0.14895001
84	0xbdfe137c	-0.1240606
85	0x3c7b26cc	0.015329074
86	0xbe80c722	-0.25151926
87	0xbe25e2d2	-0.16199806
88	0x3db4b1b8	0.0882296
89	0x3e35a92d	0.17740317
90	0x3e8de378	0.27712607
91	0xbe9267a1	-0.28594688
92	0x3e467151	0.19379164
93	0x3d6fe52c	0.058568165
94	0x3c04c47a	0.008103484
95	0xbae44d37	-0.0017418031
96	0x3cfb9e18	0.030715033
97	0xbe9be158	-0.3044536
98	0x3e9a2fc9	0.30114582
99	0xbda897d0	-0.08232081
100	0x3d9dd67a	0.07706924
101	0xbd2190ee	-0.039444856
102	0xbe570217	-0.20996891
103	0x3d600837	0.054695334
104	0xbd3ecf77	-0.046584573
105	0xbe72cc2e	-0.23710701
106	0x3e085fbe	0.13317773
107	0x3e0636ac	0.13106793
108	0x3dccf38b	0.1000739
109	0xbe2bbb47	-0.1677066
110	0xbca436c4	-0.020045646
111	0x3b82cc18	0.003991615
112	0x3e0054ef	0.125324
113	0x3c6a7c18	0.014311813
114	0xbe3fcd40	-0.1873064
115	0xbd96207c	-0.07330415
116	0x3e9386dd	0.2881383
117	0x3ce0d8e2	0.027447168
118	0x3dbc4557	0.09192913
119	0x3df02336	0.11725466
120	0xbde29312	-0.11063208
121	0xbe914e72	-0.28380162
122	0x3e769f36	0.24084172
123	0x3e8df773	0.2772785
124	0x3e6c3e32	0.230706
125	0x3e9eb7d9	0.3099964
126	0xbe63ca3f	-0.2224512
127	0x3d6de720	0.058081746
128	0xbe82f8af	-0.25580356
129	0x3e375f9e	0.17907569
130	0xbde87512	-0.113504544
131	0xbe083e99	-0.13305129
132	0x3e8b7dde	0.27244467
133	0x3e6554a5	0.2239557
134	0x3da91795	0.08256451
135	0x3e96cbdc	0.29452407
136	0x3e4f55fb	0.20247643
137	0xbe6701df	-0.22559308
138	0xbe1458eb	-0.14487045
139	0x3d477309	0.04869369

rits_b.temp_decay.b f4 [10]
0	0xbe4d1006	-0.20025644
1	0xbe3045e6	-0.17214164
2	0x3d273a7b	0.040827256
3	0xbe7bc991	-0.2458861
4	0x3cea24a8	0.028581932
5	0x3dd57285	0.104222335
6	0xbe43e6c0	-0.19130993
7	0xbd664c70	-0.05622524
8	0x3e5e98b0	0.21737933
9	0x3d4d1ad5	0.050074417

exp_avg f4 [40, 15]
0	0x30b5e11f	1.3233467e-09
1	0xb5abc8cd	-1.2798934e-06
2	0xb10c390c	-2.0405109e-09
3	0xb4873224	-2.5182192e-07
4	0x32b6c781	2.1278312e-08
5	0xb5b04587	-1.3133257e-06
6	0x34869629	2.50687e-07
7	0xb5ceac69	-1.5398374e-06
8	0x336ae1c1	5.4687693e-08
9	0xb63c3681	-2.8045908e-06
10	0xb557d277	-8.040001e-07
11	0xb2a3eead	-1.9084235e-08
12	0xb14a9ac8	-2.9482852e-09
13	0x330abb43	3.2300942e-08
14	0xb0df8b0a	-1.6264903e-09
15	0x316c54b4	3.4390668e-09
16	0x3478ce53	2.317186e-07
17	0x2efd29b4	1.1512516e-10
18	0xb3861c8d	-6.2450546e-08
19	0x31a06dfd	4.669117e-09
20	0x3424b16a	1.5338233e-07
21	0x32c982e2	2.3458998e-08
22	0x35058439	4.973877e-07
23	0x32951e55	1.7359676e-08
24	0x348e0bb5	2.645808e-07
25	0x33f674ef	1.1476538e-07
26	0x31e83522	6.758129e-09
27	0x32ab94b7	1.9974648e-08
28	0x319c5c18	4.5506674e-09
29	0x2f9ba385	2.8310523e-10
30	0xb20f24ef	-8.332093e-09
31	0xb60cc5b6	-2.0976709e-06
32	0xb0ac532c	-1.2538286e-09
33	0xb3315dd3	-4.1296357e-08
34	0xb13d08b8	-2.7508076e-09
35	0xb5ab0df4	-1.2744554e-06
36	0xb366fc02	-5.3780248e-08
37	0xb689a18b	-4.1017242e-06
38	0xb3c52195	-9.179636e-08
39	0xb632dcbd	-2.6652554e-06
40	0xb56c2324	-8.796799e-07
41	0xb2dac022	-2.5465912e-08
42	0xb3f9477e	-1.16079704e-07
43	0xb0c80b1f	-1.4555076e-09
44	0xb12c2c24	-2.5054385e-09
45	0x00000000	0.0
46	0x00000000	0.0
47	0x00000000	0.0
48	0x00000000	0.0
49	0x00000000	0.0
50	0x00000000	0.0
51	0x00000000	0.0
52	0x00000000	0.0
53	0x00000000	0.0
54	0x00000000	0.0
55	0x00000000	0.0
56	0x00000000	0.0
57	0x00000000	0.0
58	0x00000000	0.0
59	0x00000000	0.0
60	0x00000000	0.0
61	0x00000000	0.0
62	0x00000000	0.0
63	0x00000000	0.0
64	0x00000000	0.0
65	0x00000000	0.0
66	0x00000000	0.0
67	0x00000000	0.0
68	0x00000000	0.0
69	0x00000000	0.0
70	0x00000000	0.0
71	0x00000000	0.0
72	0x00000000	0.0
73	0x00000000	0.0
74	0x00000000	0.0
75	0x9fba8889	-7.899994e-20
76	0x22084dfb	1.847272e-18
77	0x9e281023	-8.897183e-21
78	0x22084dfb	1.847272e-18
79	0x22084dfb	1.847272e-18
80	0x22084dfb	1.847272e-18
81	0x22084dfb	1.847272e-18
82	0x22084dfb	1.847272e-18
83	0x22084dfb	1.847272e-18
84	0x22084dfb	1.847272e-18
85	0x22084dfb	1.847272e-18
86	0x22084dfb	1.847272e-18
87	0x22084dfb	1.847272e-18
88	0x22084dfb	1.847272e-18
89	0x9e0c99cd	-7.4433435e-21
90	0x00000000	0.0
91	0x00000000	0.0
92	0x00000000	0.0
93	0x00000000	0.0
94	0x00000000	0.0
95	0x00000000	0.0
96	0x00000000	0.0
97	0x00000000	0.0
98	0x00000000	0.0
99	0x00000000	0.0
100	0x00000000	0.0
101	0x00000000	0.0
102	0x00000000	0.0
103	0x00000000	0.0
104	0x00000000	0.0
105	0x2596fc9e	2.6192032e-16
106	0xa7973ac2	-4.1974625e-15
107	0x246caea3	5.1322266e-17
108	0xa7973ac2	-4.1974625e-15
109	0xa7973ac2	-4.1974625e-15
110	0xa7973ac2	-4.1974625e-15
111	0x281563cd	8.292802e-15
112	0xa7973ac2	-4.1974625e-15
113	0x274f0b1d	2.8733045e-15
114	0xa7973ac2	-4.1974625e-15
115	0xa7973ac2	-4.1974625e-15
116	0xa7973ac2	-4.1974625e-15
117	0xa7973ac2	-4.1974625e-15
118	0xa7973ac2	-4.1974625e-15
119	0x23c192e5	2.0987314e-17
120	0x8000233b	-1.2638e-41
121	0x0006e180	6.31907e-40
122	0x800025c8	-1.3553e-41
123	0x80119440	-1.614386e-39
124	0x0006e180	6.31907e-40
125	0x0006e180	6.31907e-40
126	0x8008ae7c	-7.97277e-40
127	0x0006e180	6.31907e-40
128	0x8004a303	-4.2582e-40
129	0x0006e180	6.31907e-40
130	0x0006e180	6.31907e-40
131	0x0006e180	6.31907e-40
132	0x0006e180	6.31907e-40
133	0x0006e180	6.31907e-40
134	0x800008cf	-3.16e-42
135	0x29e4c45c	1.0159297e-13
136	0xacb2b967	-5.079648e-12
137	0x2968e858	5.1715874e-14
138	0x2c6f28a9	3.3986514e-12
139	0xacb2b967	-5.079648e-12
140	0xacb2b967	-5.079648e-12
141	0x2c7afdfa	3.5668122e-12
142	0xacb2b967	-5.079648e-12
143	0x2c3df769	2.6995856e-12
144	0xacb2b967	-5.079648e-12
145	0xacb2b967	-5.079648e-12
146	0xacb2b967	-5.079648e-12
147	0xacb2b967	-5.079648e-12
148	0xacb2b967	-5.079648e-12
149	0x28e4c45c	2.5398242e-14
150	0xb1033b9c	-1.9096893e-09
151	0xb4f63de9	-4.5866116e-07
152	0xb076e9d0	-8.9826546e-10
153	0x3278ce86	1.4482458e-08
154	0x319af290	4.509566e-09
155	0xb4f39e93	-4.5377655e-07
156	0x3210e498	8.433879e-09
157	0xb49ca019	-2.917375e-07
158	0xb3380326	-4.2843702e-08
159	0xb55e3712	-8.278158e-07
160	0xb4dd1f96	-4.118744e-07
161	0xb1864373	-3.9075814e-09
162	0xb120aa35	-2.3379816e-09
163	0x32296047	9.858986e-09
164	0xaffdc2d4	-4.6158866e-10
165	0x30ac6b88	1.2545209e-09
166	0xb2b321da	-2.0853737e-08
167	0x2fec30ab	4.296273e-10
168	0xb2b395cc	-2.0906462e-08
169	0xb2b381d5	-2.0897383e-08
170	0xb2b33a2d	-2.0864798e-08
171	0x339653f7	7.0001924e-08
172	0xb2b33109	-2.0860641e-08
173	0x3284f8e2	1.5480001e-08
174	0xb2b324c2	-2.0855058e-08
175	0xb2b31fb9	-2.0852768e-08
176	0xb2b381e4	-2.089741e-08
177	0xb2b37c75	-2.089494e-08
178	0xb2b3823a	-2.0897563e-08
179	0x2ee5de78	1.0453233e-10
180	0xa097805e	-2.566534e-19
181	0x22d26b2c	5.7034087e-18
182	0x1e1e2c76	8.373645e-21
183	0x22d26b2c	5.7034087e-18
184	0x22d26b2c	5.7034087e-18
185	0x22d26b2c	5.7034087e-18
186	0x22d26b2c	5.7034087e-18
187	0x22d26b2c	5.7034087e-18
188	0x22d26b2c	5.7034087e-18
189	0x22d26b2c	5.7034087e-18
190	0x22d26b2c	5.7034087e-18
191	0x22d26b2c	5.7034087e-18
192	0x22d26b2c	5.7034087e-18
193	0x22d26b2c	5.7034087e-18
194	0x000392e8	3.28207e-40
195	0x00000000	0.0
196	0x00000000	0.0
197	0x00000000	0.0
198	0x00000000	0.0
199	0x00000000	0.0
200	0x00000000	0.0
201	0x00000000	0.0
202	0x00000000	0.0
203	0x00000000	0.0
204	0x00000000	0.0
205	0x00000000	0.0
206	0x00000000	0.0
207	0x00000000	0.0
208	0x00000000	0.0
209	0x00000000	0.0
210	0xb2791c55	-1.45001495e-08
211	0x344f9ae7	1.933473e-07
212	0xb12bbc1e	-2.4990707e-09
213	0x34cf8627	3.8654363e-07
214	0x34bb19b5	3.485017e-07
215	0x346add01	2.1873349e-07
216	0xb3d98b41	-1.013018e-07
217	0x34402c11	1.7897425e-07
218	0xb3bc313d	-8.7633886e-08
219	0x33cc5c28	9.5162534e-08
220	0x34576bfb	2.0062718e-07
221	0x34b97f3b	3.4551508e-07
222	0x34b589de	3.381419e-07
223	0x34bb588c	3.489589e-07
224	0xb104d0bc	-1.932718e-09
225	0x9add035a	-9.140887e-23
226	0x1dacaa4d	4.5704108e-21
227	0x9a3bdc74	-3.8848774e-23
228	0x9dbfa8e6	-5.0731916e-21
229	0x1dacaa92	4.5704386e-21
230	0x1dacaa59	4.5704156e-21
231	0x9d2af099	-2.2623699e-21
232	0x1dacaa58	4.5704152e-21
233	0x9cf8a3c6	-1.6453598e-21
234	0x1dacaa34	4.5704007e-21
235	0x1dacaa62	4.5704193e-21
236	0x1dacaa91	4.5704382e-21
237	0x1dacaa90	4.570438e-21
238	0x1dacaa92	4.5704386e-21
239	0x99dd035a	-2.2852218e-23
240	0x261b8934	5.3962373e-16
241	0x29af1d0e	7.7766014e-14
242	0xa3ab6dfe	-1.858644e-17
243	0xa8580597	-1.1991621e-14
244	0x27150e87	2.068578e-15
245	0x29df5071	9.917144e-14
246	0xa8580597	-1.1991621e-14
247	0x2964fba1	5.0844423e-14
248	0xa8580597	-1.1991621e-14
249	0x29b86dbd	8.190278e-14
250	0x29d98226	9.659313e-14
251	0x26c425ef	1.3610514e-15
252	0x270e92af	1.9785976e-15
253	0x24787f02	5.3884008e-17
254	0x9c666b86	-7.6239587e-22
255	0x00000000	0.0
