data/saved_models/essai.pt (torch, 42837 bytes, 42 tensors)

rits_f.rnn_cell.weight_ih f4 [40, 15]
0	0xbe363e2f	-0.17797159
1	0xbe595dba	-0.2122716
2	0xbdd7dbbf	-0.1053996
3	0xbe206c95	-0.15666421
4	0xbc0f2bab	-0.008738439
5	0x3bea0556	0.0071417494
6	0xbe5de2a9	-0.21668495
7	0x3d46fec0	0.048582792
8	0x3e37b916	0.17941698
9	0x3c5e6977	0.0135749495
10	0xbbe24b39	-0.00690594
11	0x3e92d507	0.28678152
12	0xbe9e621b	-0.30934224
13	0xbd3e0f71	-0.046401445
14	0xbe55010c	-0.2080118
15	0x3d40a73e	0.047034495
16	0x3c9815a8	0.018565014
17	0x3dc58a26	0.0964549
18	0xbe8565f9	-0.2605436
19	0x3e066167	0.13123094
20	0xbe0538cf	-0.13009952
21	0xbd1b0db2	-0.037854858
22	0xbe8a7ff9	-0.2705076
23	0xbe94bc2b	-0.2904981
24	0x3e12f43b	0.14350979
25	0x3e90cd47	0.28281614
26	0x3d5d212f	0.053986724
27	0x3de428e6	0.11140613
28	0xbc182e70	-0.009288415
29	0xbe941105	-0.28919235
30	0x3cf085e5	0.02936072
31	0x3e6124b3	0.21986656
32	0x3e701688	0.23446095
33	0x3e5682c0	0.20948315
34	0x3e8cb5be	0.27482408
35	0xbda49320	-0.08035874
36	0x3c9b159b	0.0189312
37	0xbe0af8cd	-0.13571472
38	0xbe2eeefb	-0.17083351
39	0x3c9fd0ea	0.019508798
40	0x3d8c59f0	0.06853092
41	0x3daa0f46	0.083036944
42	0x3d8f95f6	0.07011025
43	0xbe463eb6	-0.1935986
44	0xbe476177	-0.19470774
45	0xbe65b109	-0.22430815
46	0x3e92fe10	0.2870946
47	0xbe8de24a	-0.27711707
48	0xbe824e50	-0.25450373
49	0x3db8a1dd	0.09015248
50	0x3b4b1b12	0.0030991477
51	0x3e5bf9cf	0.21482013
52	0x3e7462a4	0.23865753
53	0xbde8e97c	-0.113726586
54	0x3d989bcc	0.07451591
55	0x3e649373	0.22321872
56	0xbe2d0eff	-0.16900252
57	0xbe3bb6bb	-0.18331425
58	0xbc9bccab	-0.019018492
59	0x3d35e78b	0.04441027
60	0x3deecd7d	0.116602875
61	0x3e2e3e40	0.17015934
62	0x3e938792	0.2881437
63	0xbe1b81ea	-0.15186277
64	0xbe6e97c7	-0.23300086
65	0xbe52eb1c	-0.205975
66	0xbe3aff09	-0.1826135
67	0xbd9e3e42	-0.077267185
68	0xbc14e45b	-0.009087647
69	0xbdabed13	-0.08394828
70	0xbea07ec8	-0.31346726
71	0x3d8e37ef	0.06944262
72	0xbd8fad39	-0.070154615
73	0xbe5d20d0	-0.21594548
74	0x3d1eae80	0.038740635
75	0x3c9c46f4	0.019076802
76	0x3df74fb2	0.120757475
77	0xbda916d8	-0.0825631
78	0x3bc97552	0.006148019
79	0xbbeb3052	-0.007177391
80	0xbe835ded	-0.25657597
81	0x3db813e8	0.08988172
82	0x3e4a306d	0.19745035
83	0xbdcab4d8	-0.098977745
84	0x3e4fa326	0.2027708
85	0xbdb36eb3	-0.087613486
86	0x3e650c44	0.2236796
87	0xbe804cd6	-0.2505862
88	0xbd626763	-0.05527438
89	0xbe960a47	-0.29304716
90	0x3d143914	0.036187246
91	0x3e286e47	0.16448317
92	0x3e93c7e5	0.28863445
93	0xbd0d358a	-0.034474887
94	0x3c0ba07d	0.00852215
95	0x3e168fce	0.14703295
96	0xbe2a9a1e	-0.16660354
97	0x3e167fb0	0.14697146
98	0x3e7f3be9	0.24925198
99	0x3e247295	0.16059335
100	0x3dc0f13c	0.09421012
101	0xbea0ff97	-0.31445
102	0xbd27b162	-0.04094065
103	0x3e2a7c34	0.16648942
104	0xbe216069	-0.15759434
105	0xbe9ae2f5	-0.3025128
106	0xbe0bd1ca	-0.13654247
107	0xbd4b6251	-0.04965431
108	0xbd95d9b1	-0.07316912
109	0xbe1f44a8	-0.15553534
110	0x3e9a87ad	0.30181637
111	0xbe3a916c	-0.18219537
112	0xbe977259	-0.29579428
113	0xbde7dcad	-0.113213874
114	0xbddabee1	-0.106809385
115	0xbe27dcca	-0.16392818
116	0x3c06df58	0.00823196
117	0xbdb1cf5e	-0.0868213
118	0xbe6cd2f2	-0.23127344
119	0x3e909215	0.28236452
120	0xbe78550e	-0.24251196
121	0x3e8794ee	0.26480812
122	0xbe22899a	-0.15872803
123	0xbb9b223b	-0.004734305
124	0xbe16bb0b	-0.14719789
125	0x3db50fc7	0.088409
126	0xbd8c4022	-0.0684817
127	0xbe3b1c7d	-0.18272586
128	0xbe95b5d0	-0.29240274
129	0x3e72379c	0.23654026
130	0x3e1fe4c4	0.15614611
131	0x3d8bd881	0.06828404
132	0x3e24ea4f	0.16105007
133	0x3e971289	0.2950633
134	0xbe6a3bd2	-0.22874382
135	0xbe68d6bf	-0.22738169
136	0xbdd5251c	-0.10407469
137	0xbe580a54	-0.2109769
138	0x3e5113e1	0.2041774
139	0x3b4c5fe6	0.003118509
140	0x3d615409	0.055011783
141	0xbd9fbc59	-0.07799596
142	0xbe5c3938	-0.21506202
143	0xbd370321	-0.04468072
144	0x3e8abe54	0.27098334
145	0xbc8be784	-0.017078169
146	0xbd9a451a	-0.07532711
147	0x3e3dc5b3	0.18532448
148	0xbe479adf	-0.19492672
149	0x3e5e380f	0.21701072
150	0x3cbed4af	0.023294775
151	0xbd9cdab8	-0.07658905
152	0x3d4c9984	0.04995109
153	0x3d0637cf	0.032768067
154	0xbca870fa	-0.020561684
155	0xbdbf0bc9	-0.0932842
156	0xbd760692	-0.06006486
157	0xbe421075	-0.1895159
158	0xbd9f6a01	-0.077838905
159	0xbd809d06	-0.0627995
160	0x3dccbec6	0.09997325
161	0xbd5f234e	-0.05447703
162	0xbe6283b1	-0.22120549
163	0xbe953bc2	-0.29147154
164	0x3dab924c	0.08377513
165	0xbd797915	-0.06090649
166	0x3ce3d456	0.02781121
167	0x3e29cc28	0.16581786
168	0xbe847be3	-0.25875768
169	0xbd78a587	-0.060704734
170	0xbe6cfeb3	-0.23144035
171	0x3daf2e56	0.0855376
172	0xbe7dde10	-0.24791741
173	0x3e09be78	0.13451564
174	0x3e1a9e21	0.15099384
175	0xbe34b70b	-0.1764795
176	0x3e9ddc3f	0.30832097
177	0xbe7dc38f	-0.24781631
178	0x3da88d7f	0.08230113
179	0x3e95e280	0.29274368
180	0xbdbf96a6	-0.09354906
181	0x3e5fb5d9	0.21846713
182	0x3e18ba25	0.14914759
183	0xbe3ef162	-0.18646768
184	0xbe3ec73c	-0.1863069
185	0x3def65da	0.116893485
186	0xbe8e41a6	-0.2778446
187	0x3e9ae6a6	0.30254096
188	0x3e694404	0.22779852
189	0x3de7de20	0.11321664
190	0x3e046f22	0.12933019
191	0xbc708163	-0.014679286
192	0x3e2cce75	0.16875632
193	0xbe91c2b1	-0.2846885
194	0x3e7ce81b	0.24697916
195	0xbe0b3e3e	-0.13597962
196	0xbd9c2f71	-0.07626236
197	0x3e74186d	0.23837443
198	0xbdd720e7	-0.105043225
199	0x3e8607e5	0.26177898
200	0x3d66e7aa	0.056373276
201	0xbe2b56b5	-0.16732295
202	0x3e7f5bcf	0.24937366
203	0xbc952a52	-0.018208656
204	0x3dc001da	0.09375353
205	0x3cee5145	0.029091487
206	0xbe7f1723	-0.2491117
207	0x3e22e6be	0.15908334
208	0x3e2b4818	0.1672672
209	0xbe21a4d3	-0.15785532
210	0xbd55bb4f	-0.052180585
211	0xbdb3c9f6	-0.08778755
212	0x3db48de8	0.08816129
213	0x3e92c8a6	0.28668708
214	0xbe9f4bf2	-0.3111263
215	0xbd6dfbd9	-0.05810151
216	0xbe157bfd	-0.14598079
217	0xbe021d87	-0.12706576
218	0xbe813405	-0.25235
219	0x3e525bdc	0.20542854
220	0xbe3f4383	-0.18678097
221	0x3bd67b42	0.006545455
222	0xbd5b483d	-0.05353569
223	0x3e7cbc22	0.24681142
224	0xbd2b65d4	-0.041845158
225	0xbcc33171	-0.023827286
226	0x3e0eb4d3	0.13936166
227	0x3e8fa9e8	0.28059316
228	0x3e90b3c1	0.2826214
229	0x3e2ac5bd	0.16676994
230	0x3d9c3143	0.076265834
231	0x3e1d2337	0.15345465
232	0x3e6a1ae7	0.22861825
233	0x3e08fd19	0.13377799
234	0x3e479b97	0.19492947
235	0xbe91a237	-0.28444073
236	0xbb9a2df8	-0.004705187
237	0xbe838c40	-0.2569294
238	0x3c957c76	0.018247824
239	0xbe73e4d2	-0.23817757
240	0x3e198f17	0.1499599
241	0x3e5140ea	0.20434919
242	0xbe34fb88	-0.17674077
243	0xbe4912bd	-0.19636054
244	0xbdb76445	-0.08954672
245	0xbe68d0a7	-0.22735845
246	0x3e2a8574	0.16652471
247	0xbe9a6230	-0.30153036
248	0x3e60869e	0.21926352
249	0xbe166627	-0.14687406
250	0xbea1113c	-0.3145846
251	0x3d9c047d	0.076180436
252	0x3e6e8c2b	0.23295657
253	0x3e614798	0.21999967
254	0x3d170ac4	0.0368755
255	0xbe789b1b	-0.24277918

rits_f.rnn_cell.weight_hh f4 [40, 10]
0	0xbe6870c1	-0.22699262
1	0xbe8bea51	-0.27327207
2	0x3da9f3b4	0.08298436
3	0xbd760f1e	-0.06007301
4	0xbd9b048b	-0.07569226
5	0x3d9060f5	0.07049743
6	0xbe85c4dc	-0.26126754
7	0x3c5b09ed	0.013369066
8	0x3d2a1160	0.041520476
9	0x3e6c7437	0.23091207
10	0xbd5b0c8b	-0.05347876
11	0xbe026b70	-0.12736297
12	0x3e97afbb	0.2962626
13	0x3d6b9ef2	0.05752463
14	0xbe53f810	-0.20700097
15	0xbe2133f8	-0.15742481
16	0x3c5e6ce4	0.013575766
17	0x3e04ad7b	0.12956803
18	0xbe2817fd	-0.16415401
19	0x3e4aaafd	0.1979179
20	0x3e0b525a	0.13605633
21	0xbe056545	-0.13026913
22	0xbb92a2c4	-0.0044749696
23	0x3cbedada	0.023297716
24	0x3e84ed54	0.25962317
25	0xbe005440	-0.12532139
26	0x3e9d4d4c	0.30723035
27	0xbe92228b	-0.2854198
28	0x3e546a10	0.20743585
29	0x3db7b2bf	0.0896964
30	0xbe1681df	-0.1469798
31	0xbe4055eb	-0.18782775
32	0x3d800a97	0.0625202
33	0x3e383d1c	0.17992061
34	0xbe21ed29	-0.15813126
35	0x3d9ae13b	0.075624906
36	0x3d56c64b	0.0524352
37	0xbe89fc0b	-0.26950106
38	0x3e2a91ce	0.16657183
39	0xbe8bdfec	-0.27319276
40	0x3e3e6210	0.18592095
41	0x3e5c661e	0.2152333
42	0x3d8f710a	0.07003982
43	0x3c8a942b	0.016916355
44	0x3e1d66ed	0.15371294
45	0x3e378b0a	0.17924133
46	0x3e9b11fe	0.30287164
47	0x3e049087	0.12945758
48	0x3e456ec3	0.19280533
49	0x3e4bfa3c	0.19919676
50	0xbbea4fa9	-0.0071506095
51	0xbe0edcd1	-0.13951422
52	0xbe8f3680	-0.27971268
53	0xbdbcb396	-0.09213941
54	0xbd90ed19	-0.07076473
55	0x3c1f2951	0.00971444
56	0x3e5567b7	0.20840345
57	0xbe34baf1	-0.17649437
58	0xbd935af8	-0.07195085
59	0x3d7aef75	0.06126352
60	0x3e53c1de	0.20679423
61	0xbe8a4566	-0.27006072
62	0x3dc74a27	0.0973094
63	0x3deb2f23	0.114836
64	0x3e6f74d2	0.23384407
65	0x3e1cf5ae	0.15328094
66	0xbdb8c994	-0.09022823
67	0x3e7b4435	0.24537738
68	0x3e8da8d6	0.27667874
69	0x3e36a9c1	0.17838193
70	0xbdc084db	-0.0940034
71	0x3e4fb109	0.20282377
72	0xbe8ccc0d	-0.27499428
73	0xbe6db1ae	-0.2321231
74	0x3e905c72	0.2819553
75	0x3e6af376	0.22944435
76	0xbe949b39	-0.29024675
77	0x3e362c34	0.177903
78	0x3e0cf089	0.13763632
79	0xbdd7544d	-0.10514126
80	0x3d919095	0.07107655
81	0x3da0e491	0.078560956
82	0x3e390558	0.18068445
83	0xbe233a1c	-0.15940136
84	0xbcac41a5	-0.021027396
85	0x3de1437b	0.10999199
86	0x3e354a70	0.17704177
87	0x3da80fb2	0.08206119
88	0xbe8a06ba	-0.26958257
89	0x3d01c5aa	0.031682648
90	0xbe3bfb78	-0.18357646
91	0xbdc0e9c2	-0.09419586
92	0xbdc30e10	-0.095241666
93	0x3c1c689a	0.009546423
94	0xbd378e24	-0.04481329
95	0x3e3cb972	0.18430117
96	0x3e6844cc	0.22682494
97	0xbe6cde37	-0.23131643
98	0x3e9d6a16	0.30745
99	0x3e023138	0.12714088
100	0x3e0e34a0	0.13887262
101	0x3b55e929	0.0032640195
102	0xbd709416	-0.058734976
103	0x3dc1b361	0.09458042
104	0x3e4811ff	0.19538115
105	0xbdeec146	-0.11657958
106	0x3e8285a3	0.25492582
107	0xbd3c981d	-0.046043504
108	0x3e33aad0	0.17545629
109	0x3e3db444	0.18525797
110	0x3d63e3b7	0.055637088
111	0xbe3ff0f6	-0.18744263
112	0xbcc84b11	-0.024449857
113	0xbd5bb1b3	-0.053636264
114	0x3e4bf171	0.19916321
115	0xbe1e4370	-0.15455413
116	0xbe05fa69	-0.13083805
117	0xbea0b632	-0.31389004
118	0x3e17b507	0.1481515
119	0x3e92f8c4	0.28705418
120	0x3df83ff0	0.1212157
121	0xbe418c6d	-0.18901224
122	0x3e8c6198	0.27418208
123	0xbe4f1a2f	-0.20224832
124	0xbe91c52a	-0.28470737
125	0xbdb925d1	-0.09040416
126	0x3daa2550	0.08307898
127	0xbc170079	-0.009216421
128	0x3e2c9151	0.16852309
129	0xbe44e7d8	-0.19229066
130	0x3e4d973b	0.20077221
131	0x3d7c1c30	0.06155032
132	0x3d9175c2	0.07102539
133	0x3e1ff013	0.15618925
134	0xbd7904d4	-0.06079562
135	0xbe363c57	-0.17796455
136	0xbdb887c9	-0.09010274
137	0x3db216ea	0.08695777
138	0xbe71ee9f	-0.23626183
139	0x3d86b75d	0.065779425
140	0x3e2019f4	0.156349
141	0xbe92fb28	-0.28707242
142	0x3e8635d0	0.2621293
143	0xbe842d06	-0.258156
144	0x3de34a07	0.11098104
145	0xbe0a8c5a	-0.13530102
146	0xbe835e5d	-0.2565793
147	0xbe2ecea3	-0.17071013
148	0x3e1dd09e	0.15411612
149	0xbdba5940	-0.09099054
150	0x3da48aaa	0.080342606
151	0xbdfb0fdf	-0.122588865
152	0x3e2a6223	0.16638999
153	0xbe8dc3a8	-0.27688336
154	0x3d98ea96	0.07466619
155	0x3caf95cd	0.021433735
156	0xbe03e987	-0.12882052
157	0xbe922e87	-0.28551123
158	0xbd21a1f8	-0.039461106
159	0xbd4d6fc3	-0.050155412
160	0xb988ff5a	-0.00026130193
161	0xbe95ba10	-0.29243517
162	0x3e16f125	0.14740427
163	0x3e9a6b48	0.30159974
164	0xbe2249a6	-0.15848407
165	0xbe87f17a	-0.2655142
166	0x3bb7c78f	0.005608506
167	0xbe4ec966	-0.20194015
168	0x3c4192a1	0.011814744
169	0xbe8c19a0	-0.273633
170	0xbe5ba32b	-0.21448962
171	0x3bd7bfbc	0.006584136
172	0x3d1513a2	0.036395676
173	0x3d5ab828	0.05339828
174	0x3e67f7eb	0.22653167
175	0xbe402535	-0.18764193
176	0x3e2c2ef0	0.1681478
177	0xbe4976b7	-0.19674192
178	0x3e948efe	0.29015344
179	0x3df55df1	0.119808085
180	0xbdd7652f	-0.10517346
181	0x3e038852	0.12844971
182	0x3e8bb59b	0.2728699
183	0x3e8b39ca	0.27192527
184	0xbe118a9e	-0.14213035
185	0xbe61e384	-0.22059447
186	0xbdaff7d6	-0.08592193
187	0x3d61cdf5	0.055128057
188	0x3da02e3c	0.078213185
189	0xbd20f749	-0.03929833
190	0x3e7a5996	0.24448237
191	0x3e9c017f	0.3046989
192	0xbd5dcfb7	-0.05415317
193	0x3e1b5894	0.15170509
194	0xbdc85595	-0.097819485
195	0xbc902e57	-0.017600222
196	0x3e9ce808	0.30645776
197	0xbe4a3f10	-0.19750619
198	0xbe31f935	-0.17380221
199	0x3e4778ec	0.19479722
200	0x3b984024	0.004646318
201	0x3e4ac239	0.19800653
202	0x3e9a5b97	0.30148003
203	0xbe2b2482	-0.16713145
204	0xbd0d67bd	-0.03452276
205	0xbe633465	-0.22187956
206	0xbe0c277f	-0.13686942
207	0x3e8d0cd2	0.27548844
208	0x3e11d1a9	0.14240135
209	0xbe843b98	-0.25826716
210	0xbd232831	-0.03983325
211	0xbe96d890	-0.294621
212	0xbdaba30f	-0.0838071
213	0x3ea197de	0.31561178
214	0xbe8cd3c1	-0.27505305
215	0xbe6a5123	-0.22882514
216	0x3e3c4c6b	0.18388526
217	0x3e818b73	0.25301704
218	0xbdbfc7aa	-0.09364255
219	0xbe52dff7	-0.20593248
220	0x3ba81c12	0.0051302994
221	0x3daacb09	0.08339507
222	0x3e95ba13	0.29243526
223	0xbd10ac0b	-0.035320323
224	0x3c9f5207	0.019448293
225	0x3e64c541	0.22340871
226	0xbe285972	-0.1644037
227	0x3da9dc48	0.082939684
228	0xbe82bfbc	-0.25536907
229	0x3e0b929d	0.13630147
230	0xbe8ca042	-0.27466017
231	0x3e9a1b15	0.30098787
232	0xbcdcdc06	-0.026960384
233	0xbde85e20	-0.11346078
234	0xbe8c53d1	-0.27407697
235	0x3e3566a1	0.17714931
236	0x3e285995	0.16440423
237	0x3e01b2fd	0.12665935
238	0x3e9b31f6	0.30311555
239	0xbc7c9546	-0.015416449
240	0x3e97f015	0.29675356
241	0x3e3a5ef8	0.1820029
242	0xbe660b0c	-0.22465152
243	0xbe4fc298	-0.20289075
244	0x3e228ad3	0.1587327
245	0xbcb79a74	-0.022412516
246	0xbe78e81e	-0.24307296
247	0xbda850a8	-0.08218509
248	0xbe690af5	-0.22758086
249	0xbe56fed7	-0.20995651
250	0xbd34a30e	-0.044100814
251	0xbe4caf08	-0.19988644
252	0xbe982d46	-0.2972204
253	0xb8e73dd6	-0.00011026456
254	0x3d063c97	0.032772627
255	0x3e45940f	0.19294761

rits_f.rnn_cell.bias_ih f4 [40]
0	0x3e665e3e	0.22496888
1	0xbe5a31a2	-0.21307996
2	0x3d4c27d5	0.049842674
3	0xbe84404b	-0.25830302
4	0x3e129794	0.14315635
5	0x3d3c6cb0	0.04600209
6	0xbe805915	-0.25067964
7	0xbe97f315	-0.29677644
8	0x3cefd0f5	0.029274443
9	0x3def1934	0.11674729
10	0xbe9e56b8	-0.30925536
11	0xbe3fd8cd	-0.18735047
12	0xbe69b9aa	-0.22824731
13	0x3e62878c	0.2212202
14	0x3deb242b	0.11481508
15	0x3da870f0	0.08224666
16	0xbdaab628	-0.08335525
17	0xbe865b21	-0.262414
18	0x3dbaabad	0.09114776
19	0x3c628889	0.013826498
20	0xbdec4921	-0.11537386
21	0x3d07e932	0.033181377
22	0xbd666a5c	-0.056253776
23	0x3e0b0c35	0.13578875
24	0xbe9e8737	-0.30962536
25	0xbe8e8514	-0.27835906
26	0x3e9b3a1a	0.30317765
27	0x3e3fb3f6	0.18720993
28	0xbcbc471d	-0.022983128
29	0x3df46d4b	0.119349085
30	0x3e92e4c0	0.28690147
31	0xbd47bc14	-0.04876335
32	0x3dfcc101	0.123415
33	0xbc1f9986	-0.009741193
34	0xbdd6bff4	-0.10485831
35	0xbdfee9d3	-0.12446942
36	0x3ddb9f98	0.107237995
37	0xbdbdc5ef	-0.092662685
38	0xbe0e491b	-0.13895075
39	0xbe4226fb	-0.18960182

rits_f.rnn_cell.bias_hh f4 [40]
0	0xbe28d844	-0.16488749
1	0x3e4e5925	0.20151193
2	0xbe78a612	-0.24282101
3	0x3e5374cb	0.20650022
4	0x3d3958e9	0.045250807
5	0x3d8d1e66	0.06890564
6	0xbda66bab	-0.08126005
7	0x3d47b79a	0.04875908
8	0x3e5639f8	0.20920551
9	0x3d5ee395	0.054416258
10	0x3e86595d	0.26240054
11	0xbe17ccf9	-0.14824285
12	0xbd4db781	-0.05022383
13	0xbe15f582	-0.14644435
14	0x3e5fdaf9	0.21860875
15	0xbe0f3f9a	-0.13989106
16	0x3d935e9d	0.071957804
17	0xbdc17492	-0.09446062
18	0x3e30032b	0.17188708
19	0xbd92554f	-0.071451776
20	0x3d77a18e	0.060456805
21	0x3e77c59b	0.24196474
22	0xbd634f49	-0.055495534
23	0xbe828eec	-0.25499666
24	0x3d860680	0.065442085
25	0xbdc3bb65	-0.09557227
26	0x3e3c0bff	0.18363951
27	0x3d454065	0.048157115
28	0x3e41edb1	0.18938328
29	0xbe95ca7d	-0.2925605
30	0xbdc52b62	-0.09627415
31	0x3e910e00	0.28330994
32	0x3de349c5	0.11098055
33	0x3cd8d4fd	0.026468748
34	0x3d00705a	0.031357147
35	0x3e989430	0.29800558
36	0xbea1418e	-0.31495327
37	0x3c037037	0.00802236
38	0xbd499261	-0.049211863
39	0x3e88adf6	0.26695222

rits_f.regression.weight f4 [1, 10]
0	0x3e2b9f93	0.16760091
1	0x3d10f29f	0.03538763
2	0x3e5ab9bb	0.21359913
3	0x3e073ffa	0.13207999
4	0xbe6b63d5	-0.22987302
5	0xbe4c75c2	-0.19966796
6	0x3d950d09	0.07277877
7	0xbd5e140e	-0.054218344
8	0xbe2fa97a	-0.17154494
9	0xbdfd7cd0	-0.12377322

rits_f.temp_decay.W f4 [10, 14]
0	0x3dffbc75	0.12487117
1	0x3e5c6c8d	0.21525784
2	0x3ea177be	0.3153667
3	0xbdba26b2	-0.09089412
4	0xbe92e2f6	-0.28688782
5	0xbe342793	-0.17593221
6	0xbe383ed3	-0.17992716
7	0x3e179c7e	0.14805791
8	0xbd855883	-0.06511023
9	0xbe800950	-0.25007105
10	0xbe32dcaa	-0.17466989
11	0xbe86a8f2	-0.2630077
12	0xbe1d844a	-0.15382496
13	0x3ddfd4de	0.10929273
14	0xbdbed231	-0.093174346
15	0x3cfb5742	0.030681256
16	0xbdbc942e	-0.092079505
17	0x3e9d82ac	0.30763757
18	0xbea18e2f	-0.3155379
19	0xbe93b459	-0.28848532
20	0xbe086412	-0.13319424
21	0xbe1b7164	-0.15179974
22	0x3e468c68	0.19389498
23	0xbe898316	-0.26857823
24	0x3e4f9083	0.2026997
25	0x3e407932	0.18796232
26	0x3e16a74e	0.14712259
27	0x3ddd4dbf	0.108058445
28	0x3e8c7853	0.2743555
29	0x3e57d70a	0.21078125
30	0x3c6dd41f	0.014515906
31	0x3e648403	0.22315983
32	0x3ccace5a	0.0247566
33	0xbe650c19	-0.22367896
34	0x3e917ba0	0.2841463
35	0x3e725797	0.23666225
36	0xbdf20ad6	-0.11818473
37	0x3dc91c6e	0.09819876
38	0x3e4bc67e	0.19899938
39	0xbe4dcd6a	-0.2009789
40	0x3e6636fe	0.22481915
41	0xbe8a669a	-0.27031404
42	0xbe7fc48f	-0.24977325
43	0xbda1136e	-0.07865034
44	0xbe00e79a	-0.12588349
45	0x3da22c5b	0.079186164
46	0x3d27123d	0.040788878
47	0xbe805b44	-0.2506963
48	0xbd37eae0	-0.04490173
49	0x3e0dc1cb	0.13843457
50	0xbe9947a4	-0.2993747
51	0x3e4d38d6	0.20041212
52	0xbbffbb5e	-0.0078043183
53	0x3aa925b3	0.0012904912
54	0x3e413af0	0.18870139
55	0xbdafe99f	-0.085894816
56	0x3e897cdf	0.26853082
57	0x3e9f010f	0.31055495
58	0xbe8de78a	-0.27715713
59	0x3d9137bc	0.070907086
60	0xbd379ed3	-0.0448292
61	0x3e4324fb	0.19057076
62	0xbea14a2d	-0.31501904
63	0xbe6976cf	-0.22799228
64	0x3e7b2139	0.24524392
65	0xbe7d454c	-0.24733466
66	0x3ca511c1	0.020150067
67	0xbdaec85a	-0.08534308
68	0xbe707259	-0.2348112
69	0x3d62ff3d	0.055419195
70	0xbc2b3862	-0.010450454
71	0x3d958ab4	0.07301846
72	0x3e0bd24b	0.13654439
73	0xbe8f89fd	-0.28034964
74	0x3d650706	0.0559149
75	0xbcc41c94	-0.023939408
76	0x3e0bcd9e	0.13652655
77	0xbcc3f2fe	-0.023919579
78	0x3e7ccb0d	0.24686833
79	0x3d879c77	0.0662164
80	0xbe264e1a	-0.16240731
81	0xbd2894af	-0.04115742
82	0xbc70ae58	-0.014690004
83	0x3df2ff36	0.11865084
84	0x3e258ec6	0.16167745
85	0x3c859c25	0.016309807
86	0x3deec609	0.11658866
87	0xbe94d094	-0.29065382
88	0x3e75102e	0.23931953
89	0x3e28d663	0.16488032
90	0xbe935d11	-0.28781942
91	0xbd606ff0	-0.054794252
92	0xbea052b3	-0.31313094
93	0xbe1ae949	-0.15128054
94	0xbd722a0b	-0.059122127
95	0x3da86435	0.08222238
96	0x3e80faa4	0.25191224
97	0x3deb2a51	0.114826806
98	0xbe6912e7	-0.22761117
99	0xbe8b43ef	-0.27200267
100	0xbe9db6e2	-0.3080359
101	0xbd38f8ef	-0.045159277
102	0xbe9034ca	-0.28165275
103	0x3e235cdb	0.1595339
104	0x3de8ba7f	0.11363696
105	0x3e226202	0.158577
106	0x3e259558	0.16170251
107	0xbc94d162	-0.018166248
108	0xbdf52b72	-0.11971177
109	0xbdd261e6	-0.10272579
110	0xbccd54e2	-0.02506489
111	0xbe7aeaf6	-0.24503693
112	0xbda7ea62	-0.08199002
113	0x3e354d41	0.17705251
114	0x3e2fc3da	0.17164555
115	0xbe6ea369	-0.23304524
116	0xbe9ffd10	-0.3124776
117	0xbd8b0825	-0.06788663
118	0x3e67125e	0.225656
119	0xbd8dbcf6	-0.06920807
120	0xbe698019	-0.22802772
121	0x3db647f4	0.08900443
122	0x3ded73df	0.11594366
123	0x3d976d28	0.07393867
124	0xbe8e8af7	-0.27840397
125	0x3d833714	0.0640699
126	0x3e9a8e33	0.30186614
127	0xbce436d8	-0.027858183
128	0xbdfde366	-0.123968884
129	0x3e8f24dd	0.27957812
130	0xbe215293	-0.15754156
131	0xbe88d1e0	-0.26722622
132	0x3e84eb54	0.2596079
133	0xbdb17fbc	-0.086669415
134	0xbe5084d4	-0.2036317
135	0xbdca4888	-0.098771155
136	0x3d768e96	0.060194574
137	0xbe3944ff	-0.18092726
138	0xbe9e00c8	-0.3085997
139	0x3e6748db	0.22586386

rits_f.temp_decay.b f4 [10]
0	0x3d439be4	0.04775609
1	0xbd9a1e47	-0.07525306
2	0x39cbd41c	0.0003887721
3	0xbea06257	-0.31325027
4	0x3c870f00	0.016486645
5	0xbe74c11a	-0.23901787
6	0xbe926b0a	-0.2859729
7	0xbe010b1c	-0.12601894
8	0xbe2c92cf	-0.16852878
9	0xbe3d25f1	-0.18471505

rits_b.rnn_cell.weight_ih f4 [40, 15]
0	0x3e87b1ed	0.26502934
1	0xbe894625	-0.2681133
2	0x3d9450ad	0.0724195
3	0x3e7e4329	0.24830307
4	0xbd1170e6	-0.03550806
5	0x3de28b02	0.1106167
6	0xbd8ecfb3	-0.06973209
7	0x3c9140cc	0.017731093
8	0xbe084089	-0.13305868
9	0x3d38fbc7	0.04516199
10	0x3e983873	0.29730567
11	0xbe8b1d4a	-0.27170783
12	0xbe06f9a0	-0.13181162
13	0xbe076eab	-0.1322581
14	0xbdaefc0c	-0.08544168
15	0xbe9633ca	-0.29336387
16	0x3e272326	0.16322002
17	0x3de9addb	0.114101134
18	0x3e094b37	0.13407598
19	0x3d8ab18a	0.06772144
20	0xbe786365	-0.24256666
21	0x3b8343f1	0.004005902
22	0xbe8ce447	-0.27517912
23	0x3e21ad7e	0.15788838
24	0x3d99d98e	0.075121984
25	0xbe995a5c	-0.2995175
26	0x3e08ebc8	0.13371193
27	0xbe8331ce	-0.25623935
28	0xbe4d50f8	-0.20050418
29	0xbe09cead	-0.13457747
30	0xbe6f16cb	-0.23348539
31	0xbe82dcc7	-0.25559065
32	0xbc3e3197	-0.011608503
33	0xbd65ff70	-0.056151807
34	0x3de4d069	0.111725636
35	0xbe0b47ef	-0.13601659
36	0xbd1e9ea6	-0.038725518
37	0xbe9738b9	-0.29535463
38	0x3dd3269c	0.103100985
39	0xbd4ad943	-0.049523603
40	0xbce7d1d5	-0.028298298
41	0x3e415260	0.1887908
42	0xbe1583d3	-0.14601068
43	0x3cdbeb37	0.026845558
44	0xbe85d695	-0.26140276
45	0x3d2b228f	0.041781005
46	0x3e9f38fa	0.31098157
47	0x3e4b414f	0.19849132
48	0x3e83a10f	0.25708815
49	0xbd2a0037	-0.04150411
50	0xbd891edd	-0.0669534
51	0x3e42eb91	0.19035174
52	0xbdce771f	-0.10081314
53	0xbd85c4a5	-0.065316476
54	0x3e4203c2	0.18946746
55	0x3de46e7f	0.11153888
56	0x3e79d802	0.24398807
57	0xbe47abfa	-0.19499198
58	0x3dfae1d2	0.12250103
59	0x3e465f53	0.19372301
60	0xbd307c1f	-0.04308712
61	0xbdbbde12	-0.09173216
62	0x3df4af5b	0.11947509
63	0x3e98a229	0.29811218
64	0xbdd43f6e	-0.10363661
65	0xbc4387f1	-0.011934266
66	0x3e2d9e81	0.16954996
67	0x3c4b05cb	0.012391518
68	0xbdf3119b	-0.11868592
69	0x3d99d3f8	0.07511133
70	0x3e849881	0.258976
71	0x3d3dd1b2	0.04634256
72	0xbe93b61a	-0.2884987
73	0xbd636609	-0.05551723
74	0xbe84f4d8	-0.2596805
75	0xbdfd8229	-0.12378342
76	0x3dcb65c4	0.0993152
77	0xbe772c77	-0.24138056
78	0x3e99aca5	0.3001453
79	0x3e6782f1	0.22608544
80	0xbdc0a39f	-0.09406208
81	0xbe4d0e62	-0.20025018
82	0xbe7c56e4	-0.24642521
83	0xbe0473dc	-0.12934822
84	0xbe9a09ac	-0.30085504
85	0x3dafadf9	0.085781045
86	0x3d7ba141	0.06143308
87	0xbe5074c0	-0.20357037
88	0xbde1ebbf	-0.11031293
89	0x3e84105a	0.25793725
90	0x3e74529f	0.23859642
91	0xbe925a90	-0.2858472
92	0xbe230922	-0.15921453
93	0xbdb40d10	-0.08791554
94	0xbe05dfba	-0.13073626
95	0xbd4248d1	-0.047432724
96	0xbd26ba7d	-0.040705193
97	0x3d628671	0.055303995
98	0xbe3a9607	-0.18221293
99	0xbc0be295	-0.008537908
100	0xbe1a22a7	-0.15052281
101	0x3e218aad	0.15775557
102	0xbddb0dd1	-0.10695995
103	0x3dc7fe71	0.09765328
104	0xbdcdd0ec	-0.10049614
105	0x3da9d62d	0.08292804
106	0x3def21dc	0.1167638
107	0x3d6028a0	0.054726243
108	0xbe31c11b	-0.1735882
109	0xbe797c25	-0.24363764
110	0xbe31a575	-0.17348273
111	0xbd1e2445	-0.038608808
112	0xbe03a1af	-0.12854646
113	0x3e854973	0.260326
114	0xbcde203c	-0.02711498
115	0xbe1bfd82	-0.15233424
116	0x3c6f7dec	0.014617424
117	0x3cf11919	0.029430913
118	0x3ba8f093	0.005155632
119	0xbe715ccf	-0.2357056
120	0xbdbbba2d	-0.091663696
121	0x3dcbb71a	0.09947033
122	0x3e7ec681	0.2488041
123	0x3dcece3f	0.10097932
124	0x3ba217f1	0.0049467017
125	0x3e2de315	0.16981156
126	0xbe11fece	-0.14257357
127	0xbe8e4c35	-0.27792516
128	0xbe6401a3	-0.2226625
129	0x3e49c77d	0.19705005
130	0xbe1ae95b	-0.1512808
131	0x3deb951a	0.11503048
132	0xbe8933e7	-0.2679741
133	0x3d9cdcf8	0.07659334
134	0xbe9f95e7	-0.31169054
135	0xbe192348	-0.14954865
136	0x3e264037	0.16235434
137	0xbe520fbf	-0.20513819
138	0x3da0fbc0	0.078605175
139	0x3e71038e	0.23536512
140	0x3e3cb73b	0.18429272
141	0xbce44aec	-0.027867757
142	0xbde7d814	-0.113205105
143	0xbdc9bc16	-0.09850328
144	0xbc2cc740	-0.010545552
145	0x3e0b2075	0.135866
146	0x3e416617	0.188866
147	0x3e420f9c	0.18951267
148	0x3e6d556f	0.23177122
149	0x3e8032cb	0.25038752
150	0x3e1ca6c5	0.15297993
151	0x3d16543f	0.036701437
152	0xbc7cf913	-0.015440243
153	0xbdcf77a4	-0.101302415
154	0xbd84f92b	-0.064928375
155	0x3e86706e	0.26257652
156	0xbe8e90dc	-0.27844894
157	0xbdc23b6b	-0.09483989
158	0xbd84dd34	-0.06487504
159	0x3e4ee583	0.2020474
160	0xbccd7601	-0.025080683
161	0x3e9f8de4	0.3116294
162	0x3e6483d5	0.22315915
163	0x3e8329eb	0.25617918
164	0x3e344fa6	0.17608508
165	0x3d89121a	0.06692906
166	0xbe1d33d0	-0.15351796
167	0x3de3bb00	0.11119652
168	0xbd44857e	-0.04797887
169	0x3e12c670	0.1433351
170	0x3dea3111	0.1143514
171	0xbd4ca0ff	-0.049958225
172	0xbe5fabbb	-0.21842854
173	0xbdf91607	-0.121624045
174	0xbd098b42	-0.033580072
175	0xbe2f6a2d	-0.17130347
176	0x3e7eb8ca	0.24875179
177	0x3e7334e8	0.23750651
178	0x3d9d5310	0.076818585
179	0x3e06a494	0.13148719
180	0x3e8f47e8	0.27984548
181	0x3e359a9f	0.17734765
182	0xbe84a359	-0.25905874
183	0xbe91d4cb	-0.2848266
184	0x3e6a1aef	0.22861837
185	0x3e80fd87	0.25193426
186	0x3e60dccc	0.21959227
187	0x3e24bcbd	0.16087623
188	0xbc5dc487	-0.013535625
189	0xbd7fa53c	-0.06241344
190	0xbde9033b	-0.11377569
191	0x3e075039	0.13214196
192	0xbe71b4af	-0.23604082
193	0xbd9076db	-0.0705392
194	0xbe75f4ee	-0.24019215
195	0x3e8def85	0.277218
196	0xbe822328	-0.25417447
197	0x3e81c318	0.25344157
198	0xbe90632b	-0.2820066
199	0x3e065638	0.13118827
200	0xbe8849ad	-0.2661871
201	0xbe289ea1	-0.16466762
202	0xbdb1dcdc	-0.08684704
203	0x3e874b2b	0.26424536
204	0xbd7d4a9b	-0.061838727
205	0xbe2c75f8	-0.16841877
206	0x3e6ed827	0.23324643
207	0x3df550bf	0.11978292
208	0x3e2b37e9	0.16720547
209	0xbdae0b87	-0.084982924
210	0xbe9b3e51	-0.3032098
211	0xbdd363dc	-0.10321781
212	0x3e97adfa	0.2962492
213	0x3e091fe7	0.13391076
214	0x3e9e4c43	0.30917558
215	0x3e0970ea	0.1342198
216	0x3e0a4e6f	0.13506483
217	0xbe3d074a	-0.18459812
218	0xbe198587	-0.14992343
219	0xbe85043f	-0.25979802
220	0x3d1f426a	0.038881697
221	0x3e99dfb9	0.300535
222	0xbe722f63	-0.23650889
223	0x3ea048a8	0.31305432
224	0x3e712a04	0.23551184
225	0xbe40cb08	-0.1882745
226	0x3e73a6e4	0.23794132
227	0x3e3e4f97	0.18585049
228	0xbd6d454e	-0.057927422
229	0x3de5b219	0.1121561
230	0xbd20d7d2	-0.039268322
231	0xbe347dbd	-0.1762609
232	0xbdea9b8a	-0.11455448
233	0xbd1ec2f0	-0.038760126
234	0xbdbe1a4e	-0.09282361
235	0xba657678	-0.000875331
236	0x3e26645d	0.16249223
237	0x3db8131d	0.089880206
238	0xbc5a5542	-0.013325991
239	0xbda36f67	-0.07980233
240	0x3da5839d	0.08081744
241	0xbd89ead4	-0.06734243
242	0xbe76ba93	-0.2409461
243	0xbe6b3e77	-0.22973047
244	0x3cff7095	0.031181613
245	0x3e21ea6c	0.15812081
246	0x3da1b4a5	0.07895783
247	0xbdd95175	-0.1061124
248	0xbe28f225	-0.16498621
249	0xbdfbdb85	-0.122977294
250	0xbe2562e5	-0.16151007
251	0xbe7f12de	-0.24909541
252	0xbceed601	-0.02915478
253	0xbe8a3117	-0.26990578
254	0xbde3e56f	-0.11127745
255	0xbe19c56a	-0.15016714

rits_b.rnn_cell.weight_hh f4 [40, 10]
0	0xbe043176	-0.12909493
1	0xbe4bfa09	-0.199196
2	0x3e44f0ae	0.19232437
3	0x3dbc6359	0.091986366
4	0x3d85f590	0.06540978
5	0x3e943384	0.28945553
6	0xbe37deff	-0.1795616
7	0xbe0e67d0	-0.13906789
8	0x3db8a2ca	0.090154245
9	0x3e6a3ba4	0.22874314
10	0x3dd2a449	0.10285241
11	0xbe2d9df3	-0.16954784
12	0xbdc2988c	-0.09501752
13	0x3e9140b2	0.2836967
14	0xbe8d7561	-0.27628615
15	0xbe266398	-0.1624893
16	0x3e52c6a3	0.20583586
17	0x3e8cd6e5	0.27507702
18	0x3e6d4a60	0.23172903
19	0xbbd34f30	-0.006448649
20	0xbe51b0d2	-0.20477608
21	0xbe1eba2e	-0.1550071
22	0x3e47a6a9	0.1949717
23	0xbe8f4ee3	-0.27989873
24	0x3d825971	0.06364716
25	0xbe8aee8e	-0.27135128
26	0xbd4cae4f	-0.04997092
27	0x3de53f4f	0.11193716
28	0xbe98c970	-0.29841185
29	0x3e469716	0.19393572
30	0xbdd726f7	-0.10505479
31	0xbd2abc36	-0.0416834
32	0x3e637997	0.22214352
33	0xbe5a188e	-0.2129843
34	0xbd68e74c	-0.056861207
35	0xbe40d62e	-0.18831703
36	0x3e5e79a3	0.21726088
37	0x3e4d955a	0.20076504
38	0x3e0f22f4	0.13978177
39	0xbe733843	-0.23751931
40	0xbe44594a	-0.19174686
41	0xbe61fcd5	-0.22069104
42	0xbea11fa1	-0.31469443
43	0xbe8b48f1	-0.27204087
44	0xbd7dfc23	-0.062008034
45	0x3e8677b6	0.26263207
46	0x3e83a87d	0.25714484
47	0x3e91120f	0.2833409
48	0xbdd44c9a	-0.10366173
49	0x3e9d909c	0.3077439
50	0xbe05c161	-0.1306205
51	0x3e39cbd1	0.18144156
52	0x3e2ca5d0	0.16860127
53	0xbda6d017	-0.08145159
54	0xbe70e07e	-0.23523137
55	0x3e7e3958	0.24826562
56	0x3dfef754	0.12449518
57	0xbdca3936	-0.09874193
58	0x3e90325e	0.28163427
59	0x3e9b3d03	0.30319986
60	0x3e7a4792	0.24441364
61	0x3e2a1aa8	0.16611731
62	0xbe8faebd	-0.28063002
63	0x3c90fd64	0.017698951
64	0x3d127336	0.035754405
65	0x3d2dc60d	0.042425204
66	0x3ba72ee6	0.0051020263
67	0x3e476bb6	0.19474682
68	0xbe248792	-0.16067341
69	0xbe529f71	-0.20568635
70	0xbea0caa8	-0.31404614
71	0x3d08a85b	0.03336368
72	0xbd497d23	-0.049191605
73	0x3dcb26ff	0.09919547
74	0xbe2e8a69	-0.17044987
75	0x3d5da0fe	0.054108612
76	0x3d19dc58	0.03756365
77	0xbd8e0e0e	-0.069362745
78	0x3dbdf021	0.092743166
79	0xbe31437f	-0.17310904
80	0x3d9c8c1c	0.07643911
81	0xbe12590b	-0.1429178
82	0x3e8f5dba	0.28001195
83	0x3d3c8f77	0.046035256
84	0x3e63badc	0.2223925
85	0xbe92a476	-0.286411
86	0xbe89280d	-0.2678837
87	0x3dac98a1	0.08427549
88	0x3e0df059	0.13861217
89	0xbe04610e	-0.12927648
90	0x3e9c4158	0.30518603
91	0xbe416388	-0.18885624
92	0x3ddbf963	0.10740926
93	0x3e848cea	0.2588876
94	0x3e2bbcf5	0.167713
95	0xbdadb976	-0.084826395
96	0x3da2ed23	0.079553865
97	0xbd2da82b	-0.042396706
98	0xbe1dd58f	-0.15413497
99	0x3d6c9155	0.057755787
100	0x3e93f386	0.2889673
101	0x3e6f04ae	0.23341629
102	0x3e4497ea	0.19198576
103	0x3dfaa45f	0.122383825
104	0xbd92f7e9	-0.07176191
105	0xbccff60d	-0.02538588
106	0xbd6430b7	-0.05571052
107	0x3e9cd13a	0.30628377
108	0x3db3b221	0.0877421
109	0xbe85f045	-0.26159874
110	0x3e988682	0.2979012
111	0xbdc80dec	-0.097682804
112	0x3dfb84f2	0.12281217
113	0xbdd2af46	-0.10287337
114	0x3d816f41	0.06320048
115	0x3e5e8901	0.2173195
116	0x3d1129aa	0.035440125
117	0x3d5501e1	0.052003745
118	0x3e8b4017	0.27197334
119	0xbe438da9	-0.19097008
120	0x3da7a3e7	0.08185559
121	0x3d32addf	0.043622848
122	0x3e5a775f	0.21334599
123	0x3e293486	0.16523942
124	0xbe8735d2	-0.2640825
125	0xbe2adb39	-0.1668519
126	0xbe8ad502	-0.27115637
127	0x3e92c295	0.2866408
128	0x3df86f74	0.12130633
129	0xbe1056d7	-0.14095627
130	0xbe4d68dd	-0.20059533
131	0xbe8640ff	-0.26221463
132	0x3e873da8	0.26414227
133	0x3d81116d	0.06302152
134	0x3a69fd3b	0.0008925979
135	0x3e32bb9e	0.17454383
136	0xbe0ae33d	-0.13563247
137	0xbe789626	-0.24276027
138	0x3df3f706	0.1191235
139	0x3e9b5d75	0.3034474
140	0x3e5aea3b	0.21378414
141	0xbcf91073	-0.030403351
142	0xbd4d21e4	-0.05008115
143	0x3d14a5aa	0.036290802
144	0x3e4c1fd1	0.19934012
145	0xbca38d81	-0.019964935
146	0x3c3eb03d	0.011638698
147	0xbe316497	-0.17323528
148	0xbe05b7df	-0.13058423
149	0x3e52a45d	0.20570512
150	0x3b2f652e	0.0026763189
151	0xbe6977f5	-0.22799666
152	0x3cf5e35a	0.030015636
153	0xbe905eae	-0.28197235
154	0xbe8dcb32	-0.27694088
155	0x3e9f94e2	0.31168276
156	0xbe8d9073	-0.27649269
157	0x3dc2b94b	0.09507998
158	0xbe463106	-0.19354638
159	0xbe6dfe68	-0.2324158
160	0x3e103996	0.14084467
161	0xbe0478e6	-0.12936744
162	0x3e900ff8	0.28137183
163	0xbe0a2e9f	-0.13494347
164	0x3c9bc545	0.019014964
165	0x3e0dfcf0	0.13866019
166	0xbe91d386	-0.28481692
167	0xbe5089f5	-0.20365126
168	0x3e55fb8d	0.2089674
169	0xbd11448b	-0.03546576
170	0x3dc0b8f8	0.0941028
171	0x3e9e368b	0.30900988
172	0x3e9c8f36	0.3057801
173	0xbd3a0110	-0.04541117
174	0xbdc691f8	-0.0969581
175	0xbe98a3c5	-0.29812446
176	0xbe61bc18	-0.22044408
177	0x3e22c2d3	0.15894632
178	0xbc561749	-0.013067075
179	0xbe1028db	-0.14078085
180	0xbe6195c9	-0.22029795
181	0xbe19eee4	-0.15032536
182	0xbe212bfe	-0.15739438
183	0xbd9ad514	-0.07560173
184	0xbdc82dc5	-0.09774355
185	0x3dd963b8	0.10614723
186	0x3d4d300a	0.05009464
187	0xbe5ec037	-0.21753012
188	0x3c15f46c	0.009152513
189	0xbe1bcca4	-0.15214783
190	0x3d27582a	0.040855564
191	0x3ca03c4c	0.019560002
192	0x3d22e9d1	0.039773766
193	0xbe88db55	-0.26729837
194	0xbe5cf464	-0.21577603
195	0xbe572539	-0.21010293
196	0x3e2ab718	0.16671407
197	0x3ddd3b11	0.10802282
198	0x3e561df8	0.2090987
199	0x3e7ff608	0.24996197
200	0x3e6d7a04	0.23191077
201	0xbe98f160	-0.29871655
202	0x3e9117ea	0.28338557
203	0xbd7a32c8	-0.061083585
204	0xbe315c5e	-0.17320392
205	0x3e3e2507	0.18568812
206	0xbcc626e3	-0.024188465
207	0x3de4910c	0.11160478
208	0xbe74fbdd	-0.23924203
209	0x3e25b3a6	0.16181812
210	0x3c85913f	0.01630461
211	0x3e89ec39	0.26938036
212	0xbd88c4ae	-0.06678139
213	0x3df3eaf3	0.119100474
214	0xbdd4e2a8	-0.10394794
215	0x3e44f24c	0.19233054
216	0x3c73567f	0.014852165
217	0xbe35af79	-0.17742719
218	0x3cbea363	0.023271268
219	0xbe8dc8ab	-0.2769216
220	0xbe019bc1	-0.12657072
221	0x3e75af40	0.23992634
222	0xbe0725e6	-0.13198051
223	0x3e455475	0.19270499
224	0xbc9d6f63	-0.019218152
225	0xbe89e878	-0.26935172
226	0xbe2495ee	-0.16072819
227	0xbe29a1e6	-0.16565666
228	0x3e9b731f	0.30361268
229	0xbd9a794a	-0.07542665
230	0x3e7ed31a	0.24885216
231	0x3e299230	0.16559672
232	0x3dcf661c	0.10126898
233	0xbe59a1ca	-0.21253124
234	0x3dfce138	0.123476446
235	0xbe89402a	-0.26806766
236	0x3e1937e7	0.14962731
237	0x3e486550	0.19569898
238	0xbe9eea01	-0.31037906
239	0x3e6a7269	0.22895207
240	0xbe6a0fec	-0.22857636
241	0xbe65d0aa	-0.2244288
242	0x3e7611dd	0.24030252
243	0xbe661d75	-0.22472174
244	0xbbbefba9	-0.00582834
245	0x3de5d10d	0.11221514
246	0x3e205c8d	0.15660305
247	0x3dfb9e3b	0.122860394
248	0xbe32c88e	-0.17459318
249	0x3e5f6ee2	0.21819642
250	0xbe5d8511	-0.21632792
251	0xbc62f042	-0.013851227
252	0xbe7b7fba	-0.24560443
253	0xbdd3510b	-0.10318192
254	0xbd7c65f3	-0.061620664
255	0x3d9a5469	0.07535631

rits_b.rnn_cell.bias_ih f4 [40]
0	0x3dbd3edb	0.09240504
1	0xbe6b076c	-0.2295205
2	0xbc018087	-0.007904178
3	0x3ea03f2f	0.31298205
4	0xbe39eabb	-0.18155949
5	0x3df70b10	0.12062657
6	0xbd71d481	-0.05904055
7	0xbe1da694	-0.15395576
8	0xbd1ea07f	-0.03872728
9	0x3e0549b0	0.13016391
10	0xba7f414e	-0.0009737209
11	0x3e46c888	0.19412434
12	0xbe5893d9	-0.2115015
13	0xbe6cd3c2	-0.23127654
14	0x3ea0dfa9	0.3142064
15	0xbe99922d	-0.29994336
16	0xbe17f7a5	-0.14840563
17	0x3d7b4184	0.061341777
18	0xbde84652	-0.113415375
19	0x3e3a8b8d	0.18217297
20	0xbe6b4fed	-0.22979708
21	0xbe5f5926	-0.21811351
22	0x3d8e75ef	0.06956088
23	0xbddf3638	-0.10899013
24	0x3d129df1	0.035795156
25	0x3d6a7857	0.05724367
26	0x3db6011e	0.08886932
27	0xbe04d9f6	-0.1297377
28	0xbdc72583	-0.09723952
29	0x3e2cd889	0.16879477
30	0x3e7fb0b0	0.24969745
31	0x3dcf8ac5	0.1013389
32	0x3daf374f	0.08555471
33	0x3e9df584	0.30851376
34	0xbe13b83a	-0.14425746
35	0x3dde7d9a	0.108638
36	0xbe3d89c1	-0.1850958
37	0xbe87b918	-0.26508403
38	0x3bbc3f88	0.005744878
39	0x3e4d6582	0.20058253

rits_b.rnn_cell.bias_hh f4 [40]
0	0x3e008096	0.12549052
1	0x3e976b75	0.2957417
2	0x3ca3bc9f	0.019987402
3	0xbe72de38	-0.23717582
4	0x3bcc4a8d	0.006234473
5	0xbdb2c314	-0.087286144
6	0xbce73c7e	-0.028227087
7	0xbe84bcfb	-0.2592543
8	0xbdbd77cc	-0.09251365
9	0x3e737e3e	0.23778626
10	0xbd25bd63	-0.040463816
11	0x3e88c7ee	0.26715034
12	0xbe94f4ff	-0.29093167
13	0xbdacc607	-0.08436208
14	0x3e58b44b	0.21162526
15	0xbe5033b7	-0.20332228
16	0xbd9b7ac2	-0.075917736
17	0x3cf5dbe8	0.030012086
18	0x3dca841a	0.098884776
19	0x3c9ea3a4	0.01936514
20	0xbd2c6c68	-0.04209557
21	0x3e4c1a21	0.19931842
22	0xbddd44df	-0.10804152
23	0xbdc0d3de	-0.094154105
24	0x3e6c31d5	0.23065884
25	0xbdab676e	-0.08369337
26	0x3e31945c	0.17341751
27	0xbe69fc9d	-0.2285027
28	0xbdafa121	-0.08575655
29	0x3e9cd61b	0.306321
30	0xbd969af5	-0.073537745
31	0xbe887866	-0.26654357
32	0x3e293a86	0.16526231
33	0x3e7a9bd4	0.24473506
34	0x3e04980e	0.1294863
35	0xbe3cbc55	-0.18431218
36	0x3ccf5120	0.025307238
37	0x3e8e82bf	0.27834126
38	0x3e84d39c	0.25942695
39	0x3e4e8891	0.20169283

rits_b.regression.weight f4 [1, 10]
0	0x3d282757	0.041053142
1	0xbe6d421f	-0.23169754
2	0xbe8012d2	-0.2501436
3	0x3e4c729d	0.19965596
4	0xbe97a873	-0.29620704
5	0xbd9bba34	-0.07603875
6	0xbe4a7aa5	-0.19773348
7	0xbcdc9695	-0.026927272
8	0xbe84f26b	-0.259662
9	0x3e6a3b7e	0.22874257

rits_b.temp_decay.W f4 [10, 14]
0	0x390ac8d2	0.00013235517
1	0x3dab47c9	0.08363301
2	0x3dc2473c	0.09486243
3	0xbdfa1547	-0.122110896
4	0xbe7b7d53	-0.24559526
5	0xbdfafe94	-0.12255588
6	0xbe22aee9	-0.15887035
7	0xbe63d619	-0.2224964
8	0xbd7aaaad	-0.061197925
9	0xbcb31e0e	-0.021864917
10	0xbe5b7e6a	-0.21434942
11	0xbe581eec	-0.21105546
12	0x3c167805	0.009183888
13	0x3e04ae2a	0.12957063
14	0xbe60da8e	-0.21958372
15	0xbd94f40c	-0.07273111
16	0x3e65a971	0.22427918
17	0x3e86b93a	0.26313192
18	0x3e0b04c4	0.13576037
19	0x3b42b79d	0.0029711493
20	0xbd3aa1bf	-0.04556441
21	0xbe9dbf38	-0.3080995
22	0x3b0cc042	0.00214769
23	0xbe7bd50f	-0.24592994
24	0xbd2e7fcc	-0.042602345
25	0xbe23252e	-0.15932152
26	0xbe1bb78b	-0.15206735
27	0x3da87863	0.08226087
28	0xbd93ec0f	-0.07222759
29	0x3de953fc	0.11392972
30	0x3d767934	0.060174182
31	0xbe00b02a	-0.12567201
32	0xbd9e3f6d	-0.07726941
33	0x3e8d74a1	0.27628043
34	0x3d4e0c74	0.050304845
35	0xbcf59760	-0.029979408
36	0x3d032716	0.032019697
37	0xbe2a944c	-0.16658133
38	0x3dd6115d	0.104525305
39	0xbe95f147	-0.29285643
40	0xbe766108	-0.24060452
41	0x3e37510d	0.17902012
42	0x3dc46b42	0.0959077
43	0x3d0621f3	0.03274722
44	0xbe081730	-0.13290095
45	0x3cb98367	0.022645665
46	0x3e1ae599	0.15126647
47	0x3e57b161	0.21063758
48	0xbe0b20ac	-0.13586682
49	0xbcc5f213	-0.024163282
50	0xbe0097f1	-0.12557961
51	0xbe8edc29	-0.27902344
52	0xbe92ce98	-0.28673244
53	0x3e45d2e3	0.19318728
54	0xbe1ce60c	-0.15322131
55	0x3de8c9b2	0.11366595
56	0xbda1fda8	-0.07909709
57	0x3e827434	0.2547928
58	0x3d308ec0	0.043104887
59	0xbba8bdfa	-0.0051496
60	0x3dde41d0	0.108523965
61	0xbc866aa4	-0.016408272
62	0x3d180191	0.03711087
63	0xbe44408f	-0.19165252
64	0xbdd38307	-0.10327726
65	0xbe68b980	-0.22727013
66	0x3e115c94	0.14195472
67	0x3da5c1fe	0.08093642
68	0xbea19966	-0.31562346
69	0xbe04a3ef	-0.1295316
70	0x3d15f033	0.036606025
71	0x3e880ef7	0.26573917
72	0x3e257803	0.16159062
73	0x3e1e80e7	0.1547886
74	0x3e113421	0.14180042
75	0x3e2e286b	0.17007606
76	0xbe21e60e	-0.15810415
77	0x3cb7d61f	0.022440968
78	0x3dd01c1e	0.10161613
79	0xbe0fa8f6	-0.14029297
80	0x3d02c652	0.031927414
81	0x3e86f10b	0.26355776
82	0xbe5ec4fb	-0.2175483
83	0x3c0184a4	0.007905159
84	0xbe7bfc24	-0.24607903
85	0x3e3c8418	0.18409765
86	0x3e90d715	0.28289095
87	0x3bb34113	0.005470404
88	0xbe500274	-0.20313436
89	0xbe209432	-0.15681532
90	0x3d31a605	0.04337122
91	0xbe665d35	-0.22496493
92	0xbe850a04	-0.25984204
93	0xbe79fbc1	-0.24412443
94	0x3c7577ad	0.014982146
95	0x3e82c9ed	0.25544682
96	0x3ddb3c3e	0.1070485
97	0x3ea0f454	0.31436408
98	0x3e30058a	0.17189613
99	0xbd708d72	-0.058728643
100	0x3e095020	0.13409472
101	0xbe8257ec	-0.25457704
102	0xbe9dd180	-0.30823898
103	0x3d950d9a	0.07277985
104	0x3e34b549	0.1764728
105	0xbe77fcfd	-0.24217601
106	0x3e63965e	0.2222533
107	0xbd967a37	-0.073475294
108	0x3d066f26	0.032820843
109	0x3a86f484	0.001029626
110	0x3e70a392	0.23499897
111	0xbe5e79ea	-0.21726194
112	0x3e92df39	0.2868593
113	0xbe30e62b	-0.17275302
114	0xbe8d8c85	-0.2764627
115	0x3e2a9bf2	0.16661051
116	0x3dcb0d8a	0.09914692
117	0x3cb80630	0.022463888
118	0xbe9501d4	-0.29102957
119	0x3e109625	0.14119776
120	0xbd1a245d	-0.037632335
121	0xbe46de72	-0.19420794
122	0x3ea078d9	0.313422
123	0xbe9fcaa6	-0.31209296
124	0xbe6a0e25	-0.22856958
125	0x3e3b8985	0.18314178
126	0x3e40bd1e	0.18822142
127	0x3be22f84	0.006902637
128	0xbe21a39e	-0.15785071
129	0x3e05b787	0.13058291
130	0xbe3d1b98	-0.18467557
131	0x3a9dd8d9	0.0012042775
132	0xbe516d46	-0.20451841
133	0xbe6bebb0	-0.23039126
134	0xbe92ff1c	-0.28710258
135	0x3e9158d5	0.28388086
136	0x3d8613cc	0.06546745
137	0x3e0049a8	0.12528098
138	0xbe65ca91	-0.22440554
139	0xbe2becb0	-0.16789508

rits_b.temp_decay.b f4 [10]
0	0xbe8b7737	-0.2723939
1	0x3e6a6f38	0.22893989
2	0xbd1c1740	-0.03810811
3	0x3e8c1e0c	0.27366674
4	0x3df3676a	0.11884959
5	0xbe0793cc	-0.13239974
6	0x3df416b4	0.11918393
7	0x3d50c635	0.050970275
8	0xbe4ad8bd	-0.19809242
9	0xbd61b4e6	-0.05510416

exp_avg f4 [40, 15]
0	0x384b3154	4.8444912e-05
1	0xb8b6818f	-8.7025684e-05
2	0x373822fa	1.0975398e-05
3	0xba78a0de	-0.00094844203
4	0xba179317	-0.0005782111
5	0xb9875d82	-0.00025818875
6	0x3ad20699	0.0016023695
7	0x3a870baf	0.0010303165
8	0x39f1b017	0.000460983
9	0xb7487ed7	-1.1950461e-05
10	0xb9ab723c	-0.00032700773
11	0xba158268	-0.0005703331
12	0xba10c2b5	-0.00055221777
13	0xba179b50	-0.0005783336
14	0x36577957	3.2108126e-06
15	0x35e0b1f6	1.6741094e-06
16	0x3929100e	0.00016123077
17	0x33306913	4.1073758e-08
18	0xb7c5ae56	-2.3565412e-05
19	0x34a60e6b	3.09304e-07
20	0x38d6a2f3	0.00010234667
21	0xb6f2275b	-7.2167436e-06
22	0x398120e1	0.00024629294
23	0xb7338b36	-1.0701644e-05
24	0x393b8782	0.0001788419
25	0x390e59db	0.00013575649
26	0x35cd8816	1.5313296e-06
27	0x372643ca	9.910154e-06
28	0x33e707b4	1.0758177e-07
29	0x3392dc95	6.8387784e-08
30	0x8f4209b4	-9.566807e-30
31	0x9281ddaf	-8.195694e-28
32	0x8cfc3df4	-3.8864034e-31
33	0x115c82b5	1.7395217e-28
34	0x8e42dcdb	-2.4018684e-30
35	0x923a7f3a	-5.884807e-28
36	0x90e449b7	-9.004372e-29
37	0x92ac7999	-1.0884702e-27
38	0x90b7a62b	-7.2436795e-29
39	0x92a70c20	-1.0542171e-27
40	0x92247fae	-5.1906653e-28
41	0x8f6fd47c	-1.1824533e-29
42	0x9068f46a	-4.5942222e-29
43	0x8d7427a2	-7.523601e-31
44	0x8d51aaed	-6.460884e-31
45	0xb878ac68	-5.9288373e-05
46	0x3a77a7dc	0.0009447315
47	0xb7357283	-1.08151025e-05
48	0x3a77a7dc	0.0009447315
49	0x3a77a7dc	0.0009447315
50	0x3a77a7dc	0.0009447315
51	0xbae5c583	-0.0017530177
52	0x3a77a7dc	0.0009447315
53	0xba1a84e4	-0.0005894436
54	0x3a77a7dc	0.0009447315
55	0x3a77a7dc	0.0009447315
56	0x3a77a7dc	0.0009447315
57	0x3a77a7dc	0.0009447315
58	0x3a77a7dc	0.0009447315
59	0xb69e7fe8	-4.723657e-06
60	0x00000000	0.0
61	0x00000000	0.0
62	0x00000000	0.0
63	0x00000000	0.0
64	0x00000000	0.0
65	0x00000000	0.0
66	0x00000000	0.0
67	0x00000000	0.0
68	0x00000000	0.0
69	0x00000000	0.0
70	0x00000000	0.0
71	0x00000000	0.0
72	0x00000000	0.0
73	0x00000000	0.0
74	0x00000000	0.0
75	0x2a169eb9	1.3377744e-13
76	0xacd93f06	-6.174508e-12
77	0x2a0dbdf7	1.2589223e-13
78	0x2d80b7f4	1.4633607e-11
79	0xacd93f06	-6.174508e-12
80	0xacd93f06	-6.174508e-12
81	0x2d21d6c4	9.199478e-12
82	0xacd93f06	-6.174508e-12
83	0x2c8a7d7a	3.9361266e-12
84	0xacd93f06	-6.174508e-12
85	0xacd93f06	-6.174508e-12
86	0xacd93f06	-6.174508e-12
87	0xacd93f06	-6.174508e-12
88	0xacd93f06	-6.174508e-12
89	0x290b099d	3.0872538e-14
90	0x00000000	0.0
91	0x00000000	0.0
92	0x00000000	0.0
93	0x00000000	0.0
94	0x00000000	0.0
95	0x00000000	0.0
96	0x00000000	0.0
97	0x00000000	0.0
98	0x00000000	0.0
99	0x00000000	0.0
100	0x00000000	0.0
101	0x00000000	0.0
102	0x00000000	0.0
103	0x00000000	0.0
104	0x00000000	0.0
105	0xb76ca512	-1.410513e-05
106	0x396c95ad	0.00022562472
107	0xb6a12d2b	-4.803432e-06
108	0x396c95ad	0.00022562472
109	0x396c95ad	0.00022562472
110	0x396c95ad	0.00022562472
111	0xba7ea64e	-0.00097141124
112	0x396c95ad	0.00022562472
113	0xb956e4a7	-0.0002049381
114	0x396c95ad	0.00022562472
115	0x396c95ad	0.00022562472
116	0x396c95ad	0.00022562472
117	0x396c95ad	0.00022562472
118	0x396c95ad	0.00022562472
119	0xb5976a07	-1.1281235e-06
120	0x373918f9	1.1032674e-05
121	0x3a2ae0b9	0.00065184716
122	0x349413fc	2.758169e-07
123	0xb940cf5a	-0.00018387791
124	0x34f6cbf9	4.596948e-07
125	0x39d2a516	0.0004017732
126	0x37ef1598	2.8501076e-05
127	0x3b1a300e	0.0023527178
128	0x37d03c19	2.4823517e-05
129	0x3a3dad42	0.0007235595
130	0x399c2d14	0.00029788224
131	0x373918f9	1.1032674e-05
132	0x380fd613	3.429323e-05
133	0x35014bfc	4.8166817e-07
134	0x3576cbf9	9.193896e-07
135	0x39e10171	0.00042916418
136	0x3d1c4760	0.038154006
137	0x38915d09	6.931468e-05
138	0xbbcde5be	-0.006283491
139	0x3a00e55e	0.0004916991
140	0x3d045958	0.032311767
141	0x3c1f61fe	0.009727953
142	0x3d00b95e	0.03142678
143	0x3b906759	0.0044068513
144	0x3d293a4d	0.041315366
145	0x3d167ca4	0.03673996
146	0x3a03145e	0.00050002884
147	0x3b061191	0.0020457248
148	0x396f5984	0.00022826163
149	0x38149201	3.5421926e-05
150	0x00000000	0.0
151	0x00000000	0.0
152	0x00000000	0.0
153	0x00000000	0.0
154	0x00000000	0.0
155	0x00000000	0.0
156	0x00000000	0.0
157	0x00000000	0.0
158	0x00000000	0.0
159	0x00000000	0.0
160	0x00000000	0.0
161	0x00000000	0.0
162	0x00000000	0.0
163	0x00000000	0.0
164	0x00000000	0.0
165	0x00000000	0.0
166	0x00000000	0.0
167	0x00000000	0.0
168	0x00000000	0.0
169	0x00000000	0.0
170	0x00000000	0.0
171	0x00000000	0.0
172	0x00000000	0.0
173	0x00000000	0.0
174	0x00000000	0.0
175	0x00000000	0.0
176	0x00000000	0.0
177	0x00000000	0.0
178	0x00000000	0.0
179	0x00000000	0.0
180	0x00000000	0.0
181	0x00000000	0.0
182	0x00000000	0.0
183	0x00000000	0.0
184	0x00000000	0.0
185	0x00000000	0.0
186	0x00000000	0.0
187	0x00000000	0.0
188	0x00000000	0.0
189	0x00000000	0.0
190	0x00000000	0.0
191	0x00000000	0.0
192	0x00000000	0.0
193	0x00000000	0.0
194	0x00000000	0.0
195	0x0005ad75	5.21402e-40
196	0x806dc7a5	-1.0081688e-38
197	0x0000bb2f	6.7149e-41
198	0x806dc7a5	-1.0081688e-38
199	0x806dc7a5	-1.0081688e-38
200	0x806dc7a5	-1.0081688e-38
201	0x806dc7a5	-1.0081688e-38
202	0x806dc7a5	-1.0081688e-38
203	0x806dc7a5	-1.0081688e-38
204	0x806dc7a5	-1.0081688e-38
205	0x806dc7a5	-1.0081688e-38
206	0x806dc7a5	-1.0081688e-38
207	0x806dc7a5	-1.0081688e-38
208	0x806dc7a5	-1.0081688e-38
209	0x000044a6	2.4626e-41
210	0x9e72142e	-1.2815546e-20
211	0x20fbc60e	4.2652116e-19
212	0x9cc1f730	-1.2835565e-21
213	0x20fbc60e	4.2652116e-19
214	0x20fbc60e	4.2652116e-19
215	0x20fbc60e	4.2652116e-19
216	0x9f558f65	-4.5223118e-20
217	0x20fbc60e	4.2652116e-19
218	0x9fb601a7	-7.708273e-20
219	0x20fbc60e	4.2652116e-19
220	0x20fbc60e	4.2652116e-19
221	0x20fbc60e	4.2652116e-19
222	0x20fbc60e	4.2652116e-19
223	0x20fbc60e	4.2652116e-19
224	0x9d212299	-2.132606e-21
225	0x1d85fee6	3.5468366e-21
226	0x9f8b9430	-5.9113945e-20
227	0x1ce840f5	1.5369263e-21
228	0x9f8b9430	-5.9113945e-20
229	0x9f8b9430	-5.9113945e-20
230	0x9f8b9430	-5.9113945e-20
231	0x201e1282	1.3389244e-19
232	0x9f8b9430	-5.9113945e-20
233	0x1f54286b	4.492618e-20
234	0x9f8b9430	-5.9113945e-20
235	0x9f8b9430	-5.9113945e-20
236	0x9f8b9430	-5.9113945e-20
237	0x9f8b9430	-5.9113945e-20
238	0x9f8b9430	-5.9113945e-20
239	0x1bb2a933	2.9556972e-22
240	0x29afdf15	7.81026e-14
241	0xac896648	-3.9051297e-12
242	0x28afdf15	1.952565e-14
243	0x2bb55e0d	1.2886928e-12
244	0xac896648	-3.9051297e-12
245	0xac896648	-3.9051297e-12
246	0xac896648	-3.9051297e-12
247	0xac896648	-3.9051297e-12
248	0xac896648	-3.9051297e-12
249	0xac896648	-3.9051297e-12
250	0xac896648	-3.9051297e-12
251	0xac896648	-3.9051297e-12
252	0xac896648	-3.9051297e-12
253	0xac896648	-3.9051297e-12
254	0x28afdf15	1.952565e-14
255	0x303b73b9	6.8194655e-10
